{"format": "graph-model", "generatedBy": "2.4.1", "convertedBy": "TensorFlow.js Converter v3.2.0", "signature": {"inputs": {"input_ids:0": {"name": "input_ids:0", "dtype": "DT_INT32", "tensorShape": {"dim": [{"size": "-1"}, {"size": "38"}]}}}, "outputs": {"Identity:0": {"name": "Identity:0", "dtype": "DT_FLOAT", "tensorShape": {"dim": [{"size": "-1"}, {"size": "7"}]}}}}, "modelTopology": {"node": [{"name": "StatefulPartitionedCall/model/bert/encoder/layer_1/output/LayerNorm/ReadVariableOp_1", "op": "Const", "attr": {"value": {"tensor": {"dtype": "DT_FLOAT", "tensorShape": {"dim": [{"size": "128"}]}}}, "dtype": {"type": "DT_FLOAT"}}}, {"name": "StatefulPartitionedCall/model/bert/encoder/layer_1/output/LayerNorm/ReadVariableOp", "op": "Const", "attr": {"value": {"tensor": {"dtype": "DT_FLOAT", "tensorShape": {"dim": [{"size": "128"}]}}}, "dtype": {"type": "DT_FLOAT"}}}, {"name": "StatefulPartitionedCall/model/bert/encoder/layer_1/output/dense/Tensordot/Const", "op": "Const", "attr": {"value": {"tensor": {"dtype": "DT_INT32", "tensorShape": {"dim": [{"size": "1"}]}}}, "dtype": {"type": "DT_INT32"}}}, {"name": "StatefulPartitionedCall/model/bert/encoder/layer_1/output/dense/Tensordot/axes", "op": "Const", "attr": {"value": {"tensor": {"dtype": "DT_INT32", "tensorShape": {"dim": [{"size": "1"}]}}}, "dtype": {"type": "DT_INT32"}}}, {"name": "StatefulPartitionedCall/model/bert/encoder/layer_1/output/dense/Tensordot/GatherV2_1/axis", "op": "Const", "attr": {"dtype": {"type": "DT_INT32"}, "value": {"tensor": {"dtype": "DT_INT32", "tensorShape": {}}}}}, {"name": "StatefulPartitionedCall/model/bert/encoder/layer_1/output/dense/Tensordot/Const_1", "op": "Const", "attr": {"value": {"tensor": {"dtype": "DT_INT32", "tensorShape": {"dim": [{"size": "1"}]}}}, "dtype": {"type": "DT_INT32"}}}, {"name": "StatefulPartitionedCall/model/bert/encoder/layer_1/output/dense/Tensordot/ReadVariableOp", "op": "Const", "attr": {"value": {"tensor": {"dtype": "DT_FLOAT", "tensorShape": {"dim": [{"size": "512"}, {"size": "128"}]}}}, "dtype": {"type": "DT_FLOAT"}}}, {"name": "StatefulPartitionedCall/model/bert/encoder/layer_1/intermediate/mul_2/x", "op": "Const", "attr": {"dtype": {"type": "DT_FLOAT"}, "value": {"tensor": {"dtype": "DT_FLOAT", "tensorShape": {}}}}}, {"name": "StatefulPartitionedCall/model/bert/encoder/layer_1/intermediate/add_1/x", "op": "Const", "attr": {"value": {"tensor": {"dtype": "DT_FLOAT", "tensorShape": {}}}, "dtype": {"type": "DT_FLOAT"}}}, {"name": "StatefulPartitionedCall/model/bert/encoder/layer_1/intermediate/mul_1/x", "op": "Const", "attr": {"dtype": {"type": "DT_FLOAT"}, "value": {"tensor": {"dtype": "DT_FLOAT", "tensorShape": {}}}}}, {"name": "StatefulPartitionedCall/model/bert/encoder/layer_1/intermediate/mul/x", "op": "Const", "attr": {"value": {"tensor": {"dtype": "DT_FLOAT", "tensorShape": {}}}, "dtype": {"type": "DT_FLOAT"}}}, {"name": "StatefulPartitionedCall/model/bert/encoder/layer_1/intermediate/Tensordot/Const", "op": "Const", "attr": {"dtype": {"type": "DT_INT32"}, "value": {"tensor": {"dtype": "DT_INT32", "tensorShape": {"dim": [{"size": "1"}]}}}}}, {"name": "StatefulPartitionedCall/model/bert/encoder/layer_1/intermediate/Tensordot/axes", "op": "Const", "attr": {"value": {"tensor": {"dtype": "DT_INT32", "tensorShape": {"dim": [{"size": "1"}]}}}, "dtype": {"type": "DT_INT32"}}}, {"name": "StatefulPartitionedCall/model/bert/encoder/layer_1/intermediate/Tensordot/GatherV2_1/axis", "op": "Const", "attr": {"value": {"tensor": {"dtype": "DT_INT32", "tensorShape": {}}}, "dtype": {"type": "DT_INT32"}}}, {"name": "StatefulPartitionedCall/model/bert/encoder/layer_1/intermediate/Tensordot/Const_1", "op": "Const", "attr": {"value": {"tensor": {"dtype": "DT_INT32", "tensorShape": {"dim": [{"size": "1"}]}}}, "dtype": {"type": "DT_INT32"}}}, {"name": "StatefulPartitionedCall/model/bert/encoder/layer_1/intermediate/Tensordot/ReadVariableOp", "op": "Const", "attr": {"value": {"tensor": {"dtype": "DT_FLOAT", "tensorShape": {"dim": [{"size": "128"}, {"size": "512"}]}}}, "dtype": {"type": "DT_FLOAT"}}}, {"name": "StatefulPartitionedCall/model/bert/encoder/layer_1/intermediate/Tensordot/free", "op": "Const", "attr": {"value": {"tensor": {"dtype": "DT_INT32", "tensorShape": {"dim": [{"size": "2"}]}}}, "dtype": {"type": "DT_INT32"}}}, {"name": "StatefulPartitionedCall/model/bert/encoder/layer_1/intermediate/Tensordot/GatherV2/axis", "op": "Const", "attr": {"value": {"tensor": {"dtype": "DT_INT32", "tensorShape": {}}}, "dtype": {"type": "DT_INT32"}}}, {"name": "StatefulPartitionedCall/model/bert/encoder/layer_1/intermediate/Tensordot/Const_2", "op": "Const", "attr": {"value": {"tensor": {"dtype": "DT_INT32", "tensorShape": {"dim": [{"size": "1"}]}}}, "dtype": {"type": "DT_INT32"}}}, {"name": "StatefulPartitionedCall/model/bert/encoder/layer_1/intermediate/Tensordot/concat_1/axis", "op": "Const", "attr": {"value": {"tensor": {"dtype": "DT_INT32", "tensorShape": {}}}, "dtype": {"type": "DT_INT32"}}}, {"name": "StatefulPartitionedCall/model/bert/encoder/layer_1/intermediate/BiasAdd/ReadVariableOp", "op": "Const", "attr": {"value": {"tensor": {"dtype": "DT_FLOAT", "tensorShape": {"dim": [{"size": "512"}]}}}, "dtype": {"type": "DT_FLOAT"}}}, {"name": "StatefulPartitionedCall/model/bert/encoder/layer_1/intermediate/Pow/y", "op": "Const", "attr": {"value": {"tensor": {"dtype": "DT_FLOAT", "tensorShape": {}}}, "dtype": {"type": "DT_FLOAT"}}}, {"name": "StatefulPartitionedCall/model/bert/encoder/layer_1/output/dense/Tensordot/free", "op": "Const", "attr": {"value": {"tensor": {"dtype": "DT_INT32", "tensorShape": {"dim": [{"size": "2"}]}}}, "dtype": {"type": "DT_INT32"}}}, {"name": "StatefulPartitionedCall/model/bert/encoder/layer_1/output/dense/Tensordot/GatherV2/axis", "op": "Const", "attr": {"value": {"tensor": {"dtype": "DT_INT32", "tensorShape": {}}}, "dtype": {"type": "DT_INT32"}}}, {"name": "StatefulPartitionedCall/model/bert/encoder/layer_1/output/dense/Tensordot/Const_2", "op": "Const", "attr": {"value": {"tensor": {"dtype": "DT_INT32", "tensorShape": {"dim": [{"size": "1"}]}}}, "dtype": {"type": "DT_INT32"}}}, {"name": "StatefulPartitionedCall/model/bert/encoder/layer_1/output/dense/Tensordot/concat_1/axis", "op": "Const", "attr": {"value": {"tensor": {"dtype": "DT_INT32", "tensorShape": {}}}, "dtype": {"type": "DT_INT32"}}}, {"name": "StatefulPartitionedCall/model/bert/encoder/layer_1/output/dense/BiasAdd/ReadVariableOp", "op": "Const", "attr": {"value": {"tensor": {"dtype": "DT_FLOAT", "tensorShape": {"dim": [{"size": "128"}]}}}, "dtype": {"type": "DT_FLOAT"}}}, {"name": "StatefulPartitionedCall/model/bert/encoder/layer_1/attention/output/LayerNorm/ReadVariableOp_1", "op": "Const", "attr": {"value": {"tensor": {"dtype": "DT_FLOAT", "tensorShape": {"dim": [{"size": "128"}]}}}, "dtype": {"type": "DT_FLOAT"}}}, {"name": "StatefulPartitionedCall/model/bert/encoder/layer_1/attention/output/LayerNorm/ReadVariableOp", "op": "Const", "attr": {"value": {"tensor": {"dtype": "DT_FLOAT", "tensorShape": {"dim": [{"size": "128"}]}}}, "dtype": {"type": "DT_FLOAT"}}}, {"name": "StatefulPartitionedCall/model/bert/encoder/layer_1/attention/output/dense/Tensordot/Const", "op": "Const", "attr": {"value": {"tensor": {"dtype": "DT_INT32", "tensorShape": {"dim": [{"size": "1"}]}}}, "dtype": {"type": "DT_INT32"}}}, {"name": "StatefulPartitionedCall/model/bert/encoder/layer_1/attention/output/dense/Tensordot/axes", "op": "Const", "attr": {"value": {"tensor": {"dtype": "DT_INT32", "tensorShape": {"dim": [{"size": "1"}]}}}, "dtype": {"type": "DT_INT32"}}}, {"name": "StatefulPartitionedCall/model/bert/encoder/layer_1/attention/output/dense/Tensordot/GatherV2_1/axis", "op": "Const", "attr": {"value": {"tensor": {"dtype": "DT_INT32", "tensorShape": {}}}, "dtype": {"type": "DT_INT32"}}}, {"name": "StatefulPartitionedCall/model/bert/encoder/layer_1/attention/output/dense/Tensordot/Const_1", "op": "Const", "attr": {"dtype": {"type": "DT_INT32"}, "value": {"tensor": {"dtype": "DT_INT32", "tensorShape": {"dim": [{"size": "1"}]}}}}}, {"name": "StatefulPartitionedCall/model/bert/encoder/layer_1/attention/output/dense/Tensordot/ReadVariableOp", "op": "Const", "attr": {"value": {"tensor": {"dtype": "DT_FLOAT", "tensorShape": {"dim": [{"size": "128"}, {"size": "128"}]}}}, "dtype": {"type": "DT_FLOAT"}}}, {"name": "StatefulPartitionedCall/model/bert/encoder/layer_1/attention/self/query/Tensordot/Const", "op": "Const", "attr": {"value": {"tensor": {"dtype": "DT_INT32", "tensorShape": {"dim": [{"size": "1"}]}}}, "dtype": {"type": "DT_INT32"}}}, {"name": "StatefulPartitionedCall/model/bert/encoder/layer_1/attention/self/query/Tensordot/axes", "op": "Const", "attr": {"value": {"tensor": {"dtype": "DT_INT32", "tensorShape": {"dim": [{"size": "1"}]}}}, "dtype": {"type": "DT_INT32"}}}, {"name": "StatefulPartitionedCall/model/bert/encoder/layer_1/attention/self/query/Tensordot/GatherV2_1/axis", "op": "Const", "attr": {"value": {"tensor": {"dtype": "DT_INT32", "tensorShape": {}}}, "dtype": {"type": "DT_INT32"}}}, {"name": "StatefulPartitionedCall/model/bert/encoder/layer_1/attention/self/query/Tensordot/Const_1", "op": "Const", "attr": {"value": {"tensor": {"dtype": "DT_INT32", "tensorShape": {"dim": [{"size": "1"}]}}}, "dtype": {"type": "DT_INT32"}}}, {"name": "StatefulPartitionedCall/model/bert/encoder/layer_1/attention/self/query/Tensordot/ReadVariableOp", "op": "Const", "attr": {"value": {"tensor": {"dtype": "DT_FLOAT", "tensorShape": {"dim": [{"size": "128"}, {"size": "128"}]}}}, "dtype": {"type": "DT_FLOAT"}}}, {"name": "StatefulPartitionedCall/model/bert/encoder/layer_1/attention/self/query/Tensordot/free", "op": "Const", "attr": {"value": {"tensor": {"dtype": "DT_INT32", "tensorShape": {"dim": [{"size": "2"}]}}}, "dtype": {"type": "DT_INT32"}}}, {"name": "StatefulPartitionedCall/model/bert/encoder/layer_1/attention/self/query/Tensordot/GatherV2/axis", "op": "Const", "attr": {"value": {"tensor": {"dtype": "DT_INT32", "tensorShape": {}}}, "dtype": {"type": "DT_INT32"}}}, {"name": "StatefulPartitionedCall/model/bert/encoder/layer_1/attention/self/query/Tensordot/Const_2", "op": "Const", "attr": {"dtype": {"type": "DT_INT32"}, "value": {"tensor": {"dtype": "DT_INT32", "tensorShape": {"dim": [{"size": "1"}]}}}}}, {"name": "StatefulPartitionedCall/model/bert/encoder/layer_1/attention/self/query/Tensordot/concat_1/axis", "op": "Const", "attr": {"dtype": {"type": "DT_INT32"}, "value": {"tensor": {"dtype": "DT_INT32", "tensorShape": {}}}}}, {"name": "StatefulPartitionedCall/model/bert/encoder/layer_1/attention/self/query/BiasAdd/ReadVariableOp", "op": "Const", "attr": {"value": {"tensor": {"dtype": "DT_FLOAT", "tensorShape": {"dim": [{"size": "128"}]}}}, "dtype": {"type": "DT_FLOAT"}}}, {"name": "StatefulPartitionedCall/model/bert/encoder/layer_1/attention/self/Reshape/shape/2", "op": "Const", "attr": {"value": {"tensor": {"dtype": "DT_INT32", "tensorShape": {}}}, "dtype": {"type": "DT_INT32"}}}, {"name": "StatefulPartitionedCall/model/bert/encoder/layer_1/attention/self/Reshape/shape/3", "op": "Const", "attr": {"dtype": {"type": "DT_INT32"}, "value": {"tensor": {"dtype": "DT_INT32", "tensorShape": {}}}}}, {"name": "StatefulPartitionedCall/model/bert/encoder/layer_1/attention/self/transpose/perm", "op": "Const", "attr": {"dtype": {"type": "DT_INT32"}, "value": {"tensor": {"dtype": "DT_INT32", "tensorShape": {"dim": [{"size": "4"}]}}}}}, {"name": "StatefulPartitionedCall/model/bert/encoder/layer_1/attention/self/key/Tensordot/Const", "op": "Const", "attr": {"value": {"tensor": {"dtype": "DT_INT32", "tensorShape": {"dim": [{"size": "1"}]}}}, "dtype": {"type": "DT_INT32"}}}, {"name": "StatefulPartitionedCall/model/bert/encoder/layer_1/attention/self/key/Tensordot/axes", "op": "Const", "attr": {"value": {"tensor": {"dtype": "DT_INT32", "tensorShape": {"dim": [{"size": "1"}]}}}, "dtype": {"type": "DT_INT32"}}}, {"name": "StatefulPartitionedCall/model/bert/encoder/layer_1/attention/self/key/Tensordot/GatherV2_1/axis", "op": "Const", "attr": {"value": {"tensor": {"dtype": "DT_INT32", "tensorShape": {}}}, "dtype": {"type": "DT_INT32"}}}, {"name": "StatefulPartitionedCall/model/bert/encoder/layer_1/attention/self/key/Tensordot/Const_1", "op": "Const", "attr": {"value": {"tensor": {"dtype": "DT_INT32", "tensorShape": {"dim": [{"size": "1"}]}}}, "dtype": {"type": "DT_INT32"}}}, {"name": "StatefulPartitionedCall/model/bert/encoder/layer_1/attention/self/key/Tensordot/ReadVariableOp", "op": "Const", "attr": {"value": {"tensor": {"dtype": "DT_FLOAT", "tensorShape": {"dim": [{"size": "128"}, {"size": "128"}]}}}, "dtype": {"type": "DT_FLOAT"}}}, {"name": "StatefulPartitionedCall/model/bert/encoder/layer_1/attention/self/key/Tensordot/free", "op": "Const", "attr": {"value": {"tensor": {"dtype": "DT_INT32", "tensorShape": {"dim": [{"size": "2"}]}}}, "dtype": {"type": "DT_INT32"}}}, {"name": "StatefulPartitionedCall/model/bert/encoder/layer_1/attention/self/key/Tensordot/GatherV2/axis", "op": "Const", "attr": {"value": {"tensor": {"dtype": "DT_INT32", "tensorShape": {}}}, "dtype": {"type": "DT_INT32"}}}, {"name": "StatefulPartitionedCall/model/bert/encoder/layer_1/attention/self/key/Tensordot/Const_2", "op": "Const", "attr": {"value": {"tensor": {"dtype": "DT_INT32", "tensorShape": {"dim": [{"size": "1"}]}}}, "dtype": {"type": "DT_INT32"}}}, {"name": "StatefulPartitionedCall/model/bert/encoder/layer_1/attention/self/key/Tensordot/concat_1/axis", "op": "Const", "attr": {"value": {"tensor": {"dtype": "DT_INT32", "tensorShape": {}}}, "dtype": {"type": "DT_INT32"}}}, {"name": "StatefulPartitionedCall/model/bert/encoder/layer_1/attention/self/key/BiasAdd/ReadVariableOp", "op": "Const", "attr": {"value": {"tensor": {"dtype": "DT_FLOAT", "tensorShape": {"dim": [{"size": "128"}]}}}, "dtype": {"type": "DT_FLOAT"}}}, {"name": "StatefulPartitionedCall/model/bert/encoder/layer_1/attention/self/Reshape_1/shape/2", "op": "Const", "attr": {"value": {"tensor": {"dtype": "DT_INT32", "tensorShape": {}}}, "dtype": {"type": "DT_INT32"}}}, {"name": "StatefulPartitionedCall/model/bert/encoder/layer_1/attention/self/Reshape_1/shape/3", "op": "Const", "attr": {"value": {"tensor": {"dtype": "DT_INT32", "tensorShape": {}}}, "dtype": {"type": "DT_INT32"}}}, {"name": "StatefulPartitionedCall/model/bert/encoder/layer_1/attention/self/transpose_1/perm", "op": "Const", "attr": {"value": {"tensor": {"dtype": "DT_INT32", "tensorShape": {"dim": [{"size": "4"}]}}}, "dtype": {"type": "DT_INT32"}}}, {"name": "ConstantFolding/StatefulPartitionedCall/model/bert/encoder/layer_1/attention/self/truediv_recip", "op": "Const", "attr": {"value": {"tensor": {"dtype": "DT_FLOAT", "tensorShape": {}}}, "dtype": {"type": "DT_FLOAT"}}}, {"name": "StatefulPartitionedCall/model/bert/encoder/layer_1/attention/self/sub/x", "op": "Const", "attr": {"value": {"tensor": {"dtype": "DT_FLOAT", "tensorShape": {}}}, "dtype": {"type": "DT_FLOAT"}}}, {"name": "StatefulPartitionedCall/model/bert/encoder/layer_1/attention/self/strided_slice_1/stack", "op": "Const", "attr": {"value": {"tensor": {"dtype": "DT_INT32", "tensorShape": {"dim": [{"size": "1"}]}}}, "dtype": {"type": "DT_INT32"}}}, {"name": "StatefulPartitionedCall/model/bert/encoder/layer_1/attention/self/strided_slice_1/stack_1", "op": "Const", "attr": {"dtype": {"type": "DT_INT32"}, "value": {"tensor": {"dtype": "DT_INT32", "tensorShape": {"dim": [{"size": "1"}]}}}}}, {"name": "StatefulPartitionedCall/model/bert/encoder/layer_1/attention/self/strided_slice_1/stack_2", "op": "Const", "attr": {"value": {"tensor": {"dtype": "DT_INT32", "tensorShape": {"dim": [{"size": "1"}]}}}, "dtype": {"type": "DT_INT32"}}}, {"name": "StatefulPartitionedCall/model/bert/encoder/layer_1/attention/self/ones_1/Const", "op": "Const", "attr": {"value": {"tensor": {"dtype": "DT_FLOAT", "tensorShape": {}}}, "dtype": {"type": "DT_FLOAT"}}}, {"name": "StatefulPartitionedCall/model/bert/encoder/layer_1/attention/self/ExpandDims_1/dim", "op": "Const", "attr": {"value": {"tensor": {"dtype": "DT_INT32", "tensorShape": {}}}, "dtype": {"type": "DT_INT32"}}}, {"name": "StatefulPartitionedCall/model/bert/encoder/layer_1/attention/self/strided_slice/stack", "op": "Const", "attr": {"value": {"tensor": {"dtype": "DT_INT32", "tensorShape": {"dim": [{"size": "1"}]}}}, "dtype": {"type": "DT_INT32"}}}, {"name": "StatefulPartitionedCall/model/bert/encoder/layer_1/attention/self/strided_slice/stack_1", "op": "Const", "attr": {"value": {"tensor": {"dtype": "DT_INT32", "tensorShape": {"dim": [{"size": "1"}]}}}, "dtype": {"type": "DT_INT32"}}}, {"name": "StatefulPartitionedCall/model/bert/encoder/layer_1/attention/self/strided_slice/stack_2", "op": "Const", "attr": {"value": {"tensor": {"dtype": "DT_INT32", "tensorShape": {"dim": [{"size": "1"}]}}}, "dtype": {"type": "DT_INT32"}}}, {"name": "StatefulPartitionedCall/model/bert/encoder/layer_1/attention/self/ones/packed/1", "op": "Const", "attr": {"value": {"tensor": {"dtype": "DT_INT32", "tensorShape": {}}}, "dtype": {"type": "DT_INT32"}}}, {"name": "StatefulPartitionedCall/model/bert/encoder/layer_1/attention/self/ones/Const", "op": "Const", "attr": {"value": {"tensor": {"dtype": "DT_INT32", "tensorShape": {}}}, "dtype": {"type": "DT_INT32"}}}, {"name": "StatefulPartitionedCall/model/bert/encoder/layer_1/attention/self/ExpandDims/dim", "op": "Const", "attr": {"value": {"tensor": {"dtype": "DT_INT32", "tensorShape": {}}}, "dtype": {"type": "DT_INT32"}}}, {"name": "StatefulPartitionedCall/model/bert/encoder/layer_1/attention/self/ExpandDims_2/dim", "op": "Const", "attr": {"value": {"tensor": {"dtype": "DT_INT32", "tensorShape": {}}}, "dtype": {"type": "DT_INT32"}}}, {"name": "StatefulPartitionedCall/model/bert/encoder/layer_1/attention/self/mul_1/y", "op": "Const", "attr": {"value": {"tensor": {"dtype": "DT_FLOAT", "tensorShape": {}}}, "dtype": {"type": "DT_FLOAT"}}}, {"name": "StatefulPartitionedCall/model/bert/encoder/layer_1/attention/self/value/Tensordot/Const", "op": "Const", "attr": {"value": {"tensor": {"dtype": "DT_INT32", "tensorShape": {"dim": [{"size": "1"}]}}}, "dtype": {"type": "DT_INT32"}}}, {"name": "StatefulPartitionedCall/model/bert/encoder/layer_1/attention/self/value/Tensordot/axes", "op": "Const", "attr": {"value": {"tensor": {"dtype": "DT_INT32", "tensorShape": {"dim": [{"size": "1"}]}}}, "dtype": {"type": "DT_INT32"}}}, {"name": "StatefulPartitionedCall/model/bert/encoder/layer_1/attention/self/value/Tensordot/GatherV2_1/axis", "op": "Const", "attr": {"value": {"tensor": {"dtype": "DT_INT32", "tensorShape": {}}}, "dtype": {"type": "DT_INT32"}}}, {"name": "StatefulPartitionedCall/model/bert/encoder/layer_1/attention/self/value/Tensordot/Const_1", "op": "Const", "attr": {"dtype": {"type": "DT_INT32"}, "value": {"tensor": {"dtype": "DT_INT32", "tensorShape": {"dim": [{"size": "1"}]}}}}}, {"name": "StatefulPartitionedCall/model/bert/encoder/layer_1/attention/self/value/Tensordot/ReadVariableOp", "op": "Const", "attr": {"value": {"tensor": {"dtype": "DT_FLOAT", "tensorShape": {"dim": [{"size": "128"}, {"size": "128"}]}}}, "dtype": {"type": "DT_FLOAT"}}}, {"name": "StatefulPartitionedCall/model/bert/encoder/layer_1/attention/self/value/Tensordot/free", "op": "Const", "attr": {"value": {"tensor": {"dtype": "DT_INT32", "tensorShape": {"dim": [{"size": "2"}]}}}, "dtype": {"type": "DT_INT32"}}}, {"name": "StatefulPartitionedCall/model/bert/encoder/layer_1/attention/self/value/Tensordot/GatherV2/axis", "op": "Const", "attr": {"value": {"tensor": {"dtype": "DT_INT32", "tensorShape": {}}}, "dtype": {"type": "DT_INT32"}}}, {"name": "StatefulPartitionedCall/model/bert/encoder/layer_1/attention/self/value/Tensordot/Const_2", "op": "Const", "attr": {"value": {"tensor": {"dtype": "DT_INT32", "tensorShape": {"dim": [{"size": "1"}]}}}, "dtype": {"type": "DT_INT32"}}}, {"name": "StatefulPartitionedCall/model/bert/encoder/layer_1/attention/self/value/Tensordot/concat_1/axis", "op": "Const", "attr": {"value": {"tensor": {"dtype": "DT_INT32", "tensorShape": {}}}, "dtype": {"type": "DT_INT32"}}}, {"name": "StatefulPartitionedCall/model/bert/encoder/layer_1/attention/self/value/BiasAdd/ReadVariableOp", "op": "Const", "attr": {"value": {"tensor": {"dtype": "DT_FLOAT", "tensorShape": {"dim": [{"size": "128"}]}}}, "dtype": {"type": "DT_FLOAT"}}}, {"name": "StatefulPartitionedCall/model/bert/encoder/layer_1/attention/self/Reshape_2/shape/2", "op": "Const", "attr": {"value": {"tensor": {"dtype": "DT_INT32", "tensorShape": {}}}, "dtype": {"type": "DT_INT32"}}}, {"name": "StatefulPartitionedCall/model/bert/encoder/layer_1/attention/self/Reshape_2/shape/3", "op": "Const", "attr": {"value": {"tensor": {"dtype": "DT_INT32", "tensorShape": {}}}, "dtype": {"type": "DT_INT32"}}}, {"name": "StatefulPartitionedCall/model/bert/encoder/layer_1/attention/self/transpose_2/perm", "op": "Const", "attr": {"value": {"tensor": {"dtype": "DT_INT32", "tensorShape": {"dim": [{"size": "4"}]}}}, "dtype": {"type": "DT_INT32"}}}, {"name": "StatefulPartitionedCall/model/bert/encoder/layer_1/attention/self/transpose_3/perm", "op": "Const", "attr": {"value": {"tensor": {"dtype": "DT_INT32", "tensorShape": {"dim": [{"size": "4"}]}}}, "dtype": {"type": "DT_INT32"}}}, {"name": "StatefulPartitionedCall/model/bert/encoder/layer_1/attention/self/strided_slice_2/stack", "op": "Const", "attr": {"dtype": {"type": "DT_INT32"}, "value": {"tensor": {"dtype": "DT_INT32", "tensorShape": {"dim": [{"size": "1"}]}}}}}, {"name": "StatefulPartitionedCall/model/bert/encoder/layer_1/attention/self/strided_slice_2/stack_1", "op": "Const", "attr": {"value": {"tensor": {"dtype": "DT_INT32", "tensorShape": {"dim": [{"size": "1"}]}}}, "dtype": {"type": "DT_INT32"}}}, {"name": "StatefulPartitionedCall/model/bert/encoder/layer_1/attention/self/strided_slice_2/stack_2", "op": "Const", "attr": {"value": {"tensor": {"dtype": "DT_INT32", "tensorShape": {"dim": [{"size": "1"}]}}}, "dtype": {"type": "DT_INT32"}}}, {"name": "StatefulPartitionedCall/model/bert/encoder/layer_1/attention/self/strided_slice_3/stack", "op": "Const", "attr": {"dtype": {"type": "DT_INT32"}, "value": {"tensor": {"dtype": "DT_INT32", "tensorShape": {"dim": [{"size": "1"}]}}}}}, {"name": "StatefulPartitionedCall/model/bert/encoder/layer_1/attention/self/strided_slice_3/stack_1", "op": "Const", "attr": {"value": {"tensor": {"dtype": "DT_INT32", "tensorShape": {"dim": [{"size": "1"}]}}}, "dtype": {"type": "DT_INT32"}}}, {"name": "StatefulPartitionedCall/model/bert/encoder/layer_1/attention/self/strided_slice_3/stack_2", "op": "Const", "attr": {"dtype": {"type": "DT_INT32"}, "value": {"tensor": {"dtype": "DT_INT32", "tensorShape": {"dim": [{"size": "1"}]}}}}}, {"name": "StatefulPartitionedCall/model/bert/encoder/layer_1/attention/self/Reshape_3/shape/2", "op": "Const", "attr": {"value": {"tensor": {"dtype": "DT_INT32", "tensorShape": {}}}, "dtype": {"type": "DT_INT32"}}}, {"name": "StatefulPartitionedCall/model/bert/encoder/layer_1/attention/output/dense/Tensordot/free", "op": "Const", "attr": {"dtype": {"type": "DT_INT32"}, "value": {"tensor": {"dtype": "DT_INT32", "tensorShape": {"dim": [{"size": "2"}]}}}}}, {"name": "StatefulPartitionedCall/model/bert/encoder/layer_1/attention/output/dense/Tensordot/GatherV2/axis", "op": "Const", "attr": {"value": {"tensor": {"dtype": "DT_INT32", "tensorShape": {}}}, "dtype": {"type": "DT_INT32"}}}, {"name": "StatefulPartitionedCall/model/bert/encoder/layer_1/attention/output/dense/Tensordot/Const_2", "op": "Const", "attr": {"value": {"tensor": {"dtype": "DT_INT32", "tensorShape": {"dim": [{"size": "1"}]}}}, "dtype": {"type": "DT_INT32"}}}, {"name": "StatefulPartitionedCall/model/bert/encoder/layer_1/attention/output/dense/Tensordot/concat_1/axis", "op": "Const", "attr": {"value": {"tensor": {"dtype": "DT_INT32", "tensorShape": {}}}, "dtype": {"type": "DT_INT32"}}}, {"name": "StatefulPartitionedCall/model/bert/encoder/layer_1/attention/output/dense/BiasAdd/ReadVariableOp", "op": "Const", "attr": {"dtype": {"type": "DT_FLOAT"}, "value": {"tensor": {"dtype": "DT_FLOAT", "tensorShape": {"dim": [{"size": "128"}]}}}}}, {"name": "StatefulPartitionedCall/model/bert/encoder/layer_0/output/LayerNorm/ReadVariableOp_1", "op": "Const", "attr": {"value": {"tensor": {"dtype": "DT_FLOAT", "tensorShape": {"dim": [{"size": "128"}]}}}, "dtype": {"type": "DT_FLOAT"}}}, {"name": "StatefulPartitionedCall/model/bert/encoder/layer_0/output/LayerNorm/ReadVariableOp", "op": "Const", "attr": {"dtype": {"type": "DT_FLOAT"}, "value": {"tensor": {"dtype": "DT_FLOAT", "tensorShape": {"dim": [{"size": "128"}]}}}}}, {"name": "StatefulPartitionedCall/model/bert/encoder/layer_0/output/dense/Tensordot/Const", "op": "Const", "attr": {"value": {"tensor": {"dtype": "DT_INT32", "tensorShape": {"dim": [{"size": "1"}]}}}, "dtype": {"type": "DT_INT32"}}}, {"name": "StatefulPartitionedCall/model/bert/encoder/layer_0/output/dense/Tensordot/axes", "op": "Const", "attr": {"value": {"tensor": {"dtype": "DT_INT32", "tensorShape": {"dim": [{"size": "1"}]}}}, "dtype": {"type": "DT_INT32"}}}, {"name": "StatefulPartitionedCall/model/bert/encoder/layer_0/output/dense/Tensordot/GatherV2_1/axis", "op": "Const", "attr": {"value": {"tensor": {"dtype": "DT_INT32", "tensorShape": {}}}, "dtype": {"type": "DT_INT32"}}}, {"name": "StatefulPartitionedCall/model/bert/encoder/layer_0/output/dense/Tensordot/Const_1", "op": "Const", "attr": {"dtype": {"type": "DT_INT32"}, "value": {"tensor": {"dtype": "DT_INT32", "tensorShape": {"dim": [{"size": "1"}]}}}}}, {"name": "StatefulPartitionedCall/model/bert/encoder/layer_0/output/dense/Tensordot/ReadVariableOp", "op": "Const", "attr": {"value": {"tensor": {"dtype": "DT_FLOAT", "tensorShape": {"dim": [{"size": "512"}, {"size": "128"}]}}}, "dtype": {"type": "DT_FLOAT"}}}, {"name": "StatefulPartitionedCall/model/bert/encoder/layer_0/intermediate/mul_2/x", "op": "Const", "attr": {"value": {"tensor": {"dtype": "DT_FLOAT", "tensorShape": {}}}, "dtype": {"type": "DT_FLOAT"}}}, {"name": "StatefulPartitionedCall/model/bert/encoder/layer_0/intermediate/add_1/x", "op": "Const", "attr": {"dtype": {"type": "DT_FLOAT"}, "value": {"tensor": {"dtype": "DT_FLOAT", "tensorShape": {}}}}}, {"name": "StatefulPartitionedCall/model/bert/encoder/layer_0/intermediate/mul_1/x", "op": "Const", "attr": {"value": {"tensor": {"dtype": "DT_FLOAT", "tensorShape": {}}}, "dtype": {"type": "DT_FLOAT"}}}, {"name": "StatefulPartitionedCall/model/bert/encoder/layer_0/intermediate/mul/x", "op": "Const", "attr": {"dtype": {"type": "DT_FLOAT"}, "value": {"tensor": {"dtype": "DT_FLOAT", "tensorShape": {}}}}}, {"name": "StatefulPartitionedCall/model/bert/encoder/layer_0/intermediate/Tensordot/Const", "op": "Const", "attr": {"value": {"tensor": {"dtype": "DT_INT32", "tensorShape": {"dim": [{"size": "1"}]}}}, "dtype": {"type": "DT_INT32"}}}, {"name": "StatefulPartitionedCall/model/bert/encoder/layer_0/intermediate/Tensordot/axes", "op": "Const", "attr": {"value": {"tensor": {"dtype": "DT_INT32", "tensorShape": {"dim": [{"size": "1"}]}}}, "dtype": {"type": "DT_INT32"}}}, {"name": "StatefulPartitionedCall/model/bert/encoder/layer_0/intermediate/Tensordot/GatherV2_1/axis", "op": "Const", "attr": {"value": {"tensor": {"dtype": "DT_INT32", "tensorShape": {}}}, "dtype": {"type": "DT_INT32"}}}, {"name": "StatefulPartitionedCall/model/bert/encoder/layer_0/intermediate/Tensordot/Const_1", "op": "Const", "attr": {"value": {"tensor": {"dtype": "DT_INT32", "tensorShape": {"dim": [{"size": "1"}]}}}, "dtype": {"type": "DT_INT32"}}}, {"name": "StatefulPartitionedCall/model/bert/encoder/layer_0/intermediate/Tensordot/ReadVariableOp", "op": "Const", "attr": {"value": {"tensor": {"dtype": "DT_FLOAT", "tensorShape": {"dim": [{"size": "128"}, {"size": "512"}]}}}, "dtype": {"type": "DT_FLOAT"}}}, {"name": "StatefulPartitionedCall/model/bert/encoder/layer_0/intermediate/Tensordot/free", "op": "Const", "attr": {"value": {"tensor": {"dtype": "DT_INT32", "tensorShape": {"dim": [{"size": "2"}]}}}, "dtype": {"type": "DT_INT32"}}}, {"name": "StatefulPartitionedCall/model/bert/encoder/layer_0/intermediate/Tensordot/GatherV2/axis", "op": "Const", "attr": {"dtype": {"type": "DT_INT32"}, "value": {"tensor": {"dtype": "DT_INT32", "tensorShape": {}}}}}, {"name": "StatefulPartitionedCall/model/bert/encoder/layer_0/intermediate/Tensordot/Const_2", "op": "Const", "attr": {"value": {"tensor": {"dtype": "DT_INT32", "tensorShape": {"dim": [{"size": "1"}]}}}, "dtype": {"type": "DT_INT32"}}}, {"name": "StatefulPartitionedCall/model/bert/encoder/layer_0/intermediate/Tensordot/concat_1/axis", "op": "Const", "attr": {"value": {"tensor": {"dtype": "DT_INT32", "tensorShape": {}}}, "dtype": {"type": "DT_INT32"}}}, {"name": "StatefulPartitionedCall/model/bert/encoder/layer_0/intermediate/BiasAdd/ReadVariableOp", "op": "Const", "attr": {"value": {"tensor": {"dtype": "DT_FLOAT", "tensorShape": {"dim": [{"size": "512"}]}}}, "dtype": {"type": "DT_FLOAT"}}}, {"name": "StatefulPartitionedCall/model/bert/encoder/layer_0/intermediate/Pow/y", "op": "Const", "attr": {"value": {"tensor": {"dtype": "DT_FLOAT", "tensorShape": {}}}, "dtype": {"type": "DT_FLOAT"}}}, {"name": "StatefulPartitionedCall/model/bert/encoder/layer_0/output/dense/Tensordot/free", "op": "Const", "attr": {"value": {"tensor": {"dtype": "DT_INT32", "tensorShape": {"dim": [{"size": "2"}]}}}, "dtype": {"type": "DT_INT32"}}}, {"name": "StatefulPartitionedCall/model/bert/encoder/layer_0/output/dense/Tensordot/GatherV2/axis", "op": "Const", "attr": {"value": {"tensor": {"dtype": "DT_INT32", "tensorShape": {}}}, "dtype": {"type": "DT_INT32"}}}, {"name": "StatefulPartitionedCall/model/bert/encoder/layer_0/output/dense/Tensordot/Const_2", "op": "Const", "attr": {"dtype": {"type": "DT_INT32"}, "value": {"tensor": {"dtype": "DT_INT32", "tensorShape": {"dim": [{"size": "1"}]}}}}}, {"name": "StatefulPartitionedCall/model/bert/encoder/layer_0/output/dense/Tensordot/concat_1/axis", "op": "Const", "attr": {"value": {"tensor": {"dtype": "DT_INT32", "tensorShape": {}}}, "dtype": {"type": "DT_INT32"}}}, {"name": "StatefulPartitionedCall/model/bert/encoder/layer_0/output/dense/BiasAdd/ReadVariableOp", "op": "Const", "attr": {"value": {"tensor": {"dtype": "DT_FLOAT", "tensorShape": {"dim": [{"size": "128"}]}}}, "dtype": {"type": "DT_FLOAT"}}}, {"name": "StatefulPartitionedCall/model/bert/encoder/layer_0/attention/output/LayerNorm/ReadVariableOp_1", "op": "Const", "attr": {"value": {"tensor": {"dtype": "DT_FLOAT", "tensorShape": {"dim": [{"size": "128"}]}}}, "dtype": {"type": "DT_FLOAT"}}}, {"name": "StatefulPartitionedCall/model/bert/encoder/layer_0/attention/output/LayerNorm/ReadVariableOp", "op": "Const", "attr": {"value": {"tensor": {"dtype": "DT_FLOAT", "tensorShape": {"dim": [{"size": "128"}]}}}, "dtype": {"type": "DT_FLOAT"}}}, {"name": "StatefulPartitionedCall/model/bert/encoder/layer_0/attention/output/dense/Tensordot/Const", "op": "Const", "attr": {"value": {"tensor": {"dtype": "DT_INT32", "tensorShape": {"dim": [{"size": "1"}]}}}, "dtype": {"type": "DT_INT32"}}}, {"name": "StatefulPartitionedCall/model/bert/encoder/layer_0/attention/output/dense/Tensordot/axes", "op": "Const", "attr": {"value": {"tensor": {"dtype": "DT_INT32", "tensorShape": {"dim": [{"size": "1"}]}}}, "dtype": {"type": "DT_INT32"}}}, {"name": "StatefulPartitionedCall/model/bert/encoder/layer_0/attention/output/dense/Tensordot/GatherV2_1/axis", "op": "Const", "attr": {"value": {"tensor": {"dtype": "DT_INT32", "tensorShape": {}}}, "dtype": {"type": "DT_INT32"}}}, {"name": "StatefulPartitionedCall/model/bert/encoder/layer_0/attention/output/dense/Tensordot/Const_1", "op": "Const", "attr": {"dtype": {"type": "DT_INT32"}, "value": {"tensor": {"dtype": "DT_INT32", "tensorShape": {"dim": [{"size": "1"}]}}}}}, {"name": "StatefulPartitionedCall/model/bert/encoder/layer_0/attention/output/dense/Tensordot/ReadVariableOp", "op": "Const", "attr": {"dtype": {"type": "DT_FLOAT"}, "value": {"tensor": {"dtype": "DT_FLOAT", "tensorShape": {"dim": [{"size": "128"}, {"size": "128"}]}}}}}, {"name": "StatefulPartitionedCall/model/bert/encoder/layer_0/attention/self/query/Tensordot/Const", "op": "Const", "attr": {"value": {"tensor": {"dtype": "DT_INT32", "tensorShape": {"dim": [{"size": "1"}]}}}, "dtype": {"type": "DT_INT32"}}}, {"name": "StatefulPartitionedCall/model/bert/encoder/layer_0/attention/self/query/Tensordot/axes", "op": "Const", "attr": {"value": {"tensor": {"dtype": "DT_INT32", "tensorShape": {"dim": [{"size": "1"}]}}}, "dtype": {"type": "DT_INT32"}}}, {"name": "StatefulPartitionedCall/model/bert/encoder/layer_0/attention/self/query/Tensordot/GatherV2_1/axis", "op": "Const", "attr": {"value": {"tensor": {"dtype": "DT_INT32", "tensorShape": {}}}, "dtype": {"type": "DT_INT32"}}}, {"name": "StatefulPartitionedCall/model/bert/encoder/layer_0/attention/self/query/Tensordot/Const_1", "op": "Const", "attr": {"value": {"tensor": {"dtype": "DT_INT32", "tensorShape": {"dim": [{"size": "1"}]}}}, "dtype": {"type": "DT_INT32"}}}, {"name": "StatefulPartitionedCall/model/bert/encoder/layer_0/attention/self/query/Tensordot/ReadVariableOp", "op": "Const", "attr": {"value": {"tensor": {"dtype": "DT_FLOAT", "tensorShape": {"dim": [{"size": "128"}, {"size": "128"}]}}}, "dtype": {"type": "DT_FLOAT"}}}, {"name": "StatefulPartitionedCall/model/bert/encoder/layer_0/attention/self/query/Tensordot/free", "op": "Const", "attr": {"value": {"tensor": {"dtype": "DT_INT32", "tensorShape": {"dim": [{"size": "2"}]}}}, "dtype": {"type": "DT_INT32"}}}, {"name": "StatefulPartitionedCall/model/bert/encoder/layer_0/attention/self/query/Tensordot/GatherV2/axis", "op": "Const", "attr": {"value": {"tensor": {"dtype": "DT_INT32", "tensorShape": {}}}, "dtype": {"type": "DT_INT32"}}}, {"name": "StatefulPartitionedCall/model/bert/encoder/layer_0/attention/self/query/Tensordot/Const_2", "op": "Const", "attr": {"value": {"tensor": {"dtype": "DT_INT32", "tensorShape": {"dim": [{"size": "1"}]}}}, "dtype": {"type": "DT_INT32"}}}, {"name": "StatefulPartitionedCall/model/bert/encoder/layer_0/attention/self/query/Tensordot/concat_1/axis", "op": "Const", "attr": {"dtype": {"type": "DT_INT32"}, "value": {"tensor": {"dtype": "DT_INT32", "tensorShape": {}}}}}, {"name": "StatefulPartitionedCall/model/bert/encoder/layer_0/attention/self/query/BiasAdd/ReadVariableOp", "op": "Const", "attr": {"value": {"tensor": {"dtype": "DT_FLOAT", "tensorShape": {"dim": [{"size": "128"}]}}}, "dtype": {"type": "DT_FLOAT"}}}, {"name": "StatefulPartitionedCall/model/bert/encoder/layer_0/attention/self/Reshape/shape/2", "op": "Const", "attr": {"value": {"tensor": {"dtype": "DT_INT32", "tensorShape": {}}}, "dtype": {"type": "DT_INT32"}}}, {"name": "StatefulPartitionedCall/model/bert/encoder/layer_0/attention/self/Reshape/shape/3", "op": "Const", "attr": {"value": {"tensor": {"dtype": "DT_INT32", "tensorShape": {}}}, "dtype": {"type": "DT_INT32"}}}, {"name": "StatefulPartitionedCall/model/bert/encoder/layer_0/attention/self/transpose/perm", "op": "Const", "attr": {"value": {"tensor": {"dtype": "DT_INT32", "tensorShape": {"dim": [{"size": "4"}]}}}, "dtype": {"type": "DT_INT32"}}}, {"name": "StatefulPartitionedCall/model/bert/encoder/layer_0/attention/self/key/Tensordot/Const", "op": "Const", "attr": {"value": {"tensor": {"dtype": "DT_INT32", "tensorShape": {"dim": [{"size": "1"}]}}}, "dtype": {"type": "DT_INT32"}}}, {"name": "StatefulPartitionedCall/model/bert/encoder/layer_0/attention/self/key/Tensordot/axes", "op": "Const", "attr": {"value": {"tensor": {"dtype": "DT_INT32", "tensorShape": {"dim": [{"size": "1"}]}}}, "dtype": {"type": "DT_INT32"}}}, {"name": "StatefulPartitionedCall/model/bert/encoder/layer_0/attention/self/key/Tensordot/GatherV2_1/axis", "op": "Const", "attr": {"value": {"tensor": {"dtype": "DT_INT32", "tensorShape": {}}}, "dtype": {"type": "DT_INT32"}}}, {"name": "StatefulPartitionedCall/model/bert/encoder/layer_0/attention/self/key/Tensordot/Const_1", "op": "Const", "attr": {"value": {"tensor": {"dtype": "DT_INT32", "tensorShape": {"dim": [{"size": "1"}]}}}, "dtype": {"type": "DT_INT32"}}}, {"name": "StatefulPartitionedCall/model/bert/encoder/layer_0/attention/self/key/Tensordot/ReadVariableOp", "op": "Const", "attr": {"value": {"tensor": {"dtype": "DT_FLOAT", "tensorShape": {"dim": [{"size": "128"}, {"size": "128"}]}}}, "dtype": {"type": "DT_FLOAT"}}}, {"name": "StatefulPartitionedCall/model/bert/encoder/layer_0/attention/self/key/Tensordot/free", "op": "Const", "attr": {"value": {"tensor": {"dtype": "DT_INT32", "tensorShape": {"dim": [{"size": "2"}]}}}, "dtype": {"type": "DT_INT32"}}}, {"name": "StatefulPartitionedCall/model/bert/encoder/layer_0/attention/self/key/Tensordot/GatherV2/axis", "op": "Const", "attr": {"dtype": {"type": "DT_INT32"}, "value": {"tensor": {"dtype": "DT_INT32", "tensorShape": {}}}}}, {"name": "StatefulPartitionedCall/model/bert/encoder/layer_0/attention/self/key/Tensordot/Const_2", "op": "Const", "attr": {"value": {"tensor": {"dtype": "DT_INT32", "tensorShape": {"dim": [{"size": "1"}]}}}, "dtype": {"type": "DT_INT32"}}}, {"name": "StatefulPartitionedCall/model/bert/encoder/layer_0/attention/self/key/Tensordot/concat_1/axis", "op": "Const", "attr": {"value": {"tensor": {"dtype": "DT_INT32", "tensorShape": {}}}, "dtype": {"type": "DT_INT32"}}}, {"name": "StatefulPartitionedCall/model/bert/encoder/layer_0/attention/self/key/BiasAdd/ReadVariableOp", "op": "Const", "attr": {"value": {"tensor": {"dtype": "DT_FLOAT", "tensorShape": {"dim": [{"size": "128"}]}}}, "dtype": {"type": "DT_FLOAT"}}}, {"name": "StatefulPartitionedCall/model/bert/encoder/layer_0/attention/self/Reshape_1/shape/2", "op": "Const", "attr": {"value": {"tensor": {"dtype": "DT_INT32", "tensorShape": {}}}, "dtype": {"type": "DT_INT32"}}}, {"name": "StatefulPartitionedCall/model/bert/encoder/layer_0/attention/self/Reshape_1/shape/3", "op": "Const", "attr": {"value": {"tensor": {"dtype": "DT_INT32", "tensorShape": {}}}, "dtype": {"type": "DT_INT32"}}}, {"name": "StatefulPartitionedCall/model/bert/encoder/layer_0/attention/self/transpose_1/perm", "op": "Const", "attr": {"value": {"tensor": {"dtype": "DT_INT32", "tensorShape": {"dim": [{"size": "4"}]}}}, "dtype": {"type": "DT_INT32"}}}, {"name": "ConstantFolding/StatefulPartitionedCall/model/bert/encoder/layer_0/attention/self/truediv_recip", "op": "Const", "attr": {"value": {"tensor": {"dtype": "DT_FLOAT", "tensorShape": {}}}, "dtype": {"type": "DT_FLOAT"}}}, {"name": "StatefulPartitionedCall/model/bert/encoder/layer_0/attention/self/sub/x", "op": "Const", "attr": {"dtype": {"type": "DT_FLOAT"}, "value": {"tensor": {"dtype": "DT_FLOAT", "tensorShape": {}}}}}, {"name": "StatefulPartitionedCall/model/bert/encoder/layer_0/attention/self/strided_slice_1/stack", "op": "Const", "attr": {"value": {"tensor": {"dtype": "DT_INT32", "tensorShape": {"dim": [{"size": "1"}]}}}, "dtype": {"type": "DT_INT32"}}}, {"name": "StatefulPartitionedCall/model/bert/encoder/layer_0/attention/self/strided_slice_1/stack_1", "op": "Const", "attr": {"value": {"tensor": {"dtype": "DT_INT32", "tensorShape": {"dim": [{"size": "1"}]}}}, "dtype": {"type": "DT_INT32"}}}, {"name": "StatefulPartitionedCall/model/bert/encoder/layer_0/attention/self/strided_slice_1/stack_2", "op": "Const", "attr": {"value": {"tensor": {"dtype": "DT_INT32", "tensorShape": {"dim": [{"size": "1"}]}}}, "dtype": {"type": "DT_INT32"}}}, {"name": "StatefulPartitionedCall/model/bert/encoder/layer_0/attention/self/ones_1/Const", "op": "Const", "attr": {"value": {"tensor": {"dtype": "DT_FLOAT", "tensorShape": {}}}, "dtype": {"type": "DT_FLOAT"}}}, {"name": "StatefulPartitionedCall/model/bert/encoder/layer_0/attention/self/ExpandDims_1/dim", "op": "Const", "attr": {"value": {"tensor": {"dtype": "DT_INT32", "tensorShape": {}}}, "dtype": {"type": "DT_INT32"}}}, {"name": "StatefulPartitionedCall/model/bert/encoder/layer_0/attention/self/strided_slice/stack", "op": "Const", "attr": {"value": {"tensor": {"dtype": "DT_INT32", "tensorShape": {"dim": [{"size": "1"}]}}}, "dtype": {"type": "DT_INT32"}}}, {"name": "StatefulPartitionedCall/model/bert/encoder/layer_0/attention/self/strided_slice/stack_1", "op": "Const", "attr": {"dtype": {"type": "DT_INT32"}, "value": {"tensor": {"dtype": "DT_INT32", "tensorShape": {"dim": [{"size": "1"}]}}}}}, {"name": "StatefulPartitionedCall/model/bert/encoder/layer_0/attention/self/strided_slice/stack_2", "op": "Const", "attr": {"value": {"tensor": {"dtype": "DT_INT32", "tensorShape": {"dim": [{"size": "1"}]}}}, "dtype": {"type": "DT_INT32"}}}, {"name": "StatefulPartitionedCall/model/bert/encoder/layer_0/attention/self/ones/packed/1", "op": "Const", "attr": {"value": {"tensor": {"dtype": "DT_INT32", "tensorShape": {}}}, "dtype": {"type": "DT_INT32"}}}, {"name": "StatefulPartitionedCall/model/bert/encoder/layer_0/attention/self/ones/Const", "op": "Const", "attr": {"value": {"tensor": {"dtype": "DT_INT32", "tensorShape": {}}}, "dtype": {"type": "DT_INT32"}}}, {"name": "StatefulPartitionedCall/model/bert/encoder/layer_0/attention/self/ExpandDims/dim", "op": "Const", "attr": {"value": {"tensor": {"dtype": "DT_INT32", "tensorShape": {}}}, "dtype": {"type": "DT_INT32"}}}, {"name": "StatefulPartitionedCall/model/bert/encoder/layer_0/attention/self/ExpandDims_2/dim", "op": "Const", "attr": {"value": {"tensor": {"dtype": "DT_INT32", "tensorShape": {}}}, "dtype": {"type": "DT_INT32"}}}, {"name": "StatefulPartitionedCall/model/bert/encoder/layer_0/attention/self/mul_1/y", "op": "Const", "attr": {"value": {"tensor": {"dtype": "DT_FLOAT", "tensorShape": {}}}, "dtype": {"type": "DT_FLOAT"}}}, {"name": "StatefulPartitionedCall/model/bert/encoder/layer_0/attention/self/value/Tensordot/Const", "op": "Const", "attr": {"value": {"tensor": {"dtype": "DT_INT32", "tensorShape": {"dim": [{"size": "1"}]}}}, "dtype": {"type": "DT_INT32"}}}, {"name": "StatefulPartitionedCall/model/bert/encoder/layer_0/attention/self/value/Tensordot/axes", "op": "Const", "attr": {"value": {"tensor": {"dtype": "DT_INT32", "tensorShape": {"dim": [{"size": "1"}]}}}, "dtype": {"type": "DT_INT32"}}}, {"name": "StatefulPartitionedCall/model/bert/encoder/layer_0/attention/self/value/Tensordot/GatherV2_1/axis", "op": "Const", "attr": {"value": {"tensor": {"dtype": "DT_INT32", "tensorShape": {}}}, "dtype": {"type": "DT_INT32"}}}, {"name": "StatefulPartitionedCall/model/bert/encoder/layer_0/attention/self/value/Tensordot/Const_1", "op": "Const", "attr": {"value": {"tensor": {"dtype": "DT_INT32", "tensorShape": {"dim": [{"size": "1"}]}}}, "dtype": {"type": "DT_INT32"}}}, {"name": "StatefulPartitionedCall/model/bert/encoder/layer_0/attention/self/value/Tensordot/ReadVariableOp", "op": "Const", "attr": {"dtype": {"type": "DT_FLOAT"}, "value": {"tensor": {"dtype": "DT_FLOAT", "tensorShape": {"dim": [{"size": "128"}, {"size": "128"}]}}}}}, {"name": "StatefulPartitionedCall/model/bert/encoder/layer_0/attention/self/value/Tensordot/free", "op": "Const", "attr": {"value": {"tensor": {"dtype": "DT_INT32", "tensorShape": {"dim": [{"size": "2"}]}}}, "dtype": {"type": "DT_INT32"}}}, {"name": "StatefulPartitionedCall/model/bert/encoder/layer_0/attention/self/value/Tensordot/GatherV2/axis", "op": "Const", "attr": {"value": {"tensor": {"dtype": "DT_INT32", "tensorShape": {}}}, "dtype": {"type": "DT_INT32"}}}, {"name": "StatefulPartitionedCall/model/bert/encoder/layer_0/attention/self/value/Tensordot/Const_2", "op": "Const", "attr": {"value": {"tensor": {"dtype": "DT_INT32", "tensorShape": {"dim": [{"size": "1"}]}}}, "dtype": {"type": "DT_INT32"}}}, {"name": "StatefulPartitionedCall/model/bert/encoder/layer_0/attention/self/value/Tensordot/concat_1/axis", "op": "Const", "attr": {"value": {"tensor": {"dtype": "DT_INT32", "tensorShape": {}}}, "dtype": {"type": "DT_INT32"}}}, {"name": "StatefulPartitionedCall/model/bert/encoder/layer_0/attention/self/value/BiasAdd/ReadVariableOp", "op": "Const", "attr": {"value": {"tensor": {"dtype": "DT_FLOAT", "tensorShape": {"dim": [{"size": "128"}]}}}, "dtype": {"type": "DT_FLOAT"}}}, {"name": "StatefulPartitionedCall/model/bert/encoder/layer_0/attention/self/Reshape_2/shape/2", "op": "Const", "attr": {"value": {"tensor": {"dtype": "DT_INT32", "tensorShape": {}}}, "dtype": {"type": "DT_INT32"}}}, {"name": "StatefulPartitionedCall/model/bert/encoder/layer_0/attention/self/Reshape_2/shape/3", "op": "Const", "attr": {"dtype": {"type": "DT_INT32"}, "value": {"tensor": {"dtype": "DT_INT32", "tensorShape": {}}}}}, {"name": "StatefulPartitionedCall/model/bert/encoder/layer_0/attention/self/transpose_2/perm", "op": "Const", "attr": {"value": {"tensor": {"dtype": "DT_INT32", "tensorShape": {"dim": [{"size": "4"}]}}}, "dtype": {"type": "DT_INT32"}}}, {"name": "StatefulPartitionedCall/model/bert/encoder/layer_0/attention/self/transpose_3/perm", "op": "Const", "attr": {"value": {"tensor": {"dtype": "DT_INT32", "tensorShape": {"dim": [{"size": "4"}]}}}, "dtype": {"type": "DT_INT32"}}}, {"name": "StatefulPartitionedCall/model/bert/encoder/layer_0/attention/self/strided_slice_2/stack", "op": "Const", "attr": {"value": {"tensor": {"dtype": "DT_INT32", "tensorShape": {"dim": [{"size": "1"}]}}}, "dtype": {"type": "DT_INT32"}}}, {"name": "StatefulPartitionedCall/model/bert/encoder/layer_0/attention/self/strided_slice_2/stack_1", "op": "Const", "attr": {"value": {"tensor": {"dtype": "DT_INT32", "tensorShape": {"dim": [{"size": "1"}]}}}, "dtype": {"type": "DT_INT32"}}}, {"name": "StatefulPartitionedCall/model/bert/encoder/layer_0/attention/self/strided_slice_2/stack_2", "op": "Const", "attr": {"value": {"tensor": {"dtype": "DT_INT32", "tensorShape": {"dim": [{"size": "1"}]}}}, "dtype": {"type": "DT_INT32"}}}, {"name": "StatefulPartitionedCall/model/bert/encoder/layer_0/attention/self/strided_slice_3/stack", "op": "Const", "attr": {"value": {"tensor": {"dtype": "DT_INT32", "tensorShape": {"dim": [{"size": "1"}]}}}, "dtype": {"type": "DT_INT32"}}}, {"name": "StatefulPartitionedCall/model/bert/encoder/layer_0/attention/self/strided_slice_3/stack_1", "op": "Const", "attr": {"value": {"tensor": {"dtype": "DT_INT32", "tensorShape": {"dim": [{"size": "1"}]}}}, "dtype": {"type": "DT_INT32"}}}, {"name": "StatefulPartitionedCall/model/bert/encoder/layer_0/attention/self/strided_slice_3/stack_2", "op": "Const", "attr": {"dtype": {"type": "DT_INT32"}, "value": {"tensor": {"dtype": "DT_INT32", "tensorShape": {"dim": [{"size": "1"}]}}}}}, {"name": "StatefulPartitionedCall/model/bert/encoder/layer_0/attention/self/Reshape_3/shape/2", "op": "Const", "attr": {"value": {"tensor": {"dtype": "DT_INT32", "tensorShape": {}}}, "dtype": {"type": "DT_INT32"}}}, {"name": "StatefulPartitionedCall/model/bert/encoder/layer_0/attention/output/dense/Tensordot/free", "op": "Const", "attr": {"value": {"tensor": {"dtype": "DT_INT32", "tensorShape": {"dim": [{"size": "2"}]}}}, "dtype": {"type": "DT_INT32"}}}, {"name": "StatefulPartitionedCall/model/bert/encoder/layer_0/attention/output/dense/Tensordot/GatherV2/axis", "op": "Const", "attr": {"value": {"tensor": {"dtype": "DT_INT32", "tensorShape": {}}}, "dtype": {"type": "DT_INT32"}}}, {"name": "StatefulPartitionedCall/model/bert/encoder/layer_0/attention/output/dense/Tensordot/Const_2", "op": "Const", "attr": {"value": {"tensor": {"dtype": "DT_INT32", "tensorShape": {"dim": [{"size": "1"}]}}}, "dtype": {"type": "DT_INT32"}}}, {"name": "StatefulPartitionedCall/model/bert/encoder/layer_0/attention/output/dense/Tensordot/concat_1/axis", "op": "Const", "attr": {"value": {"tensor": {"dtype": "DT_INT32", "tensorShape": {}}}, "dtype": {"type": "DT_INT32"}}}, {"name": "StatefulPartitionedCall/model/bert/encoder/layer_0/attention/output/dense/BiasAdd/ReadVariableOp", "op": "Const", "attr": {"value": {"tensor": {"dtype": "DT_FLOAT", "tensorShape": {"dim": [{"size": "128"}]}}}, "dtype": {"type": "DT_FLOAT"}}}, {"name": "StatefulPartitionedCall/model/bert/embeddings/LayerNorm/ReadVariableOp_1", "op": "Const", "attr": {"value": {"tensor": {"dtype": "DT_FLOAT", "tensorShape": {"dim": [{"size": "128"}]}}}, "dtype": {"type": "DT_FLOAT"}}}, {"name": "StatefulPartitionedCall/model/bert/embeddings/LayerNorm/ReadVariableOp", "op": "Const", "attr": {"value": {"tensor": {"dtype": "DT_FLOAT", "tensorShape": {"dim": [{"size": "128"}]}}}, "dtype": {"type": "DT_FLOAT"}}}, {"name": "unknown", "op": "Const", "attr": {"value": {"tensor": {"dtype": "DT_FLOAT", "tensorShape": {"dim": [{"size": "30522"}, {"size": "128"}]}}}, "dtype": {"type": "DT_FLOAT"}}}, {"name": "StatefulPartitionedCall/model/bert/embeddings/word_embeddings/embedding_lookup/axis", "op": "Const", "attr": {"value": {"tensor": {"dtype": "DT_INT32", "tensorShape": {}}}, "dtype": {"type": "DT_INT32"}}}, {"name": "StatefulPartitionedCall/model/bert/embeddings/Reshape", "op": "Const", "attr": {"value": {"tensor": {"dtype": "DT_FLOAT", "tensorShape": {"dim": [{"size": "1"}, {"size": "38"}, {"size": "128"}]}}}, "dtype": {"type": "DT_FLOAT"}}}, {"name": "StatefulPartitionedCall/model/bert/embeddings/LayerNorm/moments/mean/reduction_indices", "op": "Const", "attr": {"value": {"tensor": {"dtype": "DT_INT32", "tensorShape": {}}}, "dtype": {"type": "DT_INT32"}}}, {"name": "StatefulPartitionedCall/model/bert/embeddings/LayerNorm/moments/variance/reduction_indices", "op": "Const", "attr": {"value": {"tensor": {"dtype": "DT_INT32", "tensorShape": {}}}, "dtype": {"type": "DT_INT32"}}}, {"name": "StatefulPartitionedCall/model/bert/embeddings/LayerNorm/add/y", "op": "Const", "attr": {"value": {"tensor": {"dtype": "DT_FLOAT", "tensorShape": {}}}, "dtype": {"type": "DT_FLOAT"}}}, {"name": "StatefulPartitionedCall/model/bert/encoder/layer_0/attention/output/LayerNorm/moments/mean/reduction_indices", "op": "Const", "attr": {"value": {"tensor": {"dtype": "DT_INT32", "tensorShape": {}}}, "dtype": {"type": "DT_INT32"}}}, {"name": "StatefulPartitionedCall/model/bert/encoder/layer_0/attention/output/LayerNorm/moments/variance/reduction_indices", "op": "Const", "attr": {"value": {"tensor": {"dtype": "DT_INT32", "tensorShape": {}}}, "dtype": {"type": "DT_INT32"}}}, {"name": "StatefulPartitionedCall/model/bert/encoder/layer_0/attention/output/LayerNorm/add/y", "op": "Const", "attr": {"value": {"tensor": {"dtype": "DT_FLOAT", "tensorShape": {}}}, "dtype": {"type": "DT_FLOAT"}}}, {"name": "StatefulPartitionedCall/model/bert/encoder/layer_0/output/LayerNorm/moments/mean/reduction_indices", "op": "Const", "attr": {"value": {"tensor": {"dtype": "DT_INT32", "tensorShape": {}}}, "dtype": {"type": "DT_INT32"}}}, {"name": "StatefulPartitionedCall/model/bert/encoder/layer_0/output/LayerNorm/moments/variance/reduction_indices", "op": "Const", "attr": {"value": {"tensor": {"dtype": "DT_INT32", "tensorShape": {}}}, "dtype": {"type": "DT_INT32"}}}, {"name": "StatefulPartitionedCall/model/bert/encoder/layer_0/output/LayerNorm/add/y", "op": "Const", "attr": {"value": {"tensor": {"dtype": "DT_FLOAT", "tensorShape": {}}}, "dtype": {"type": "DT_FLOAT"}}}, {"name": "StatefulPartitionedCall/model/bert/encoder/layer_1/attention/output/LayerNorm/moments/mean/reduction_indices", "op": "Const", "attr": {"value": {"tensor": {"dtype": "DT_INT32", "tensorShape": {}}}, "dtype": {"type": "DT_INT32"}}}, {"name": "StatefulPartitionedCall/model/bert/encoder/layer_1/attention/output/LayerNorm/moments/variance/reduction_indices", "op": "Const", "attr": {"value": {"tensor": {"dtype": "DT_INT32", "tensorShape": {}}}, "dtype": {"type": "DT_INT32"}}}, {"name": "StatefulPartitionedCall/model/bert/encoder/layer_1/attention/output/LayerNorm/add/y", "op": "Const", "attr": {"dtype": {"type": "DT_FLOAT"}, "value": {"tensor": {"dtype": "DT_FLOAT", "tensorShape": {}}}}}, {"name": "StatefulPartitionedCall/model/bert/encoder/layer_1/output/LayerNorm/moments/mean/reduction_indices", "op": "Const", "attr": {"value": {"tensor": {"dtype": "DT_INT32", "tensorShape": {}}}, "dtype": {"type": "DT_INT32"}}}, {"name": "StatefulPartitionedCall/model/bert/encoder/layer_1/output/LayerNorm/moments/variance/reduction_indices", "op": "Const", "attr": {"value": {"tensor": {"dtype": "DT_INT32", "tensorShape": {}}}, "dtype": {"type": "DT_INT32"}}}, {"name": "StatefulPartitionedCall/model/bert/encoder/layer_1/output/LayerNorm/add/y", "op": "Const", "attr": {"value": {"tensor": {"dtype": "DT_FLOAT", "tensorShape": {}}}, "dtype": {"type": "DT_FLOAT"}}}, {"name": "StatefulPartitionedCall/model/lambda/strided_slice/stack", "op": "Const", "attr": {"value": {"tensor": {"dtype": "DT_INT32", "tensorShape": {"dim": [{"size": "3"}]}}}, "dtype": {"type": "DT_INT32"}}}, {"name": "StatefulPartitionedCall/model/lambda/strided_slice/stack_1", "op": "Const", "attr": {"dtype": {"type": "DT_INT32"}, "value": {"tensor": {"dtype": "DT_INT32", "tensorShape": {"dim": [{"size": "3"}]}}}}}, {"name": "StatefulPartitionedCall/model/lambda/strided_slice/stack_2", "op": "Const", "attr": {"value": {"tensor": {"dtype": "DT_INT32", "tensorShape": {"dim": [{"size": "3"}]}}}, "dtype": {"type": "DT_INT32"}}}, {"name": "StatefulPartitionedCall/model/dense/MatMul/ReadVariableOp", "op": "Const", "attr": {"dtype": {"type": "DT_FLOAT"}, "value": {"tensor": {"dtype": "DT_FLOAT", "tensorShape": {"dim": [{"size": "128"}, {"size": "192"}]}}}}}, {"name": "StatefulPartitionedCall/model/dense/BiasAdd/ReadVariableOp", "op": "Const", "attr": {"value": {"tensor": {"dtype": "DT_FLOAT", "tensorShape": {"dim": [{"size": "192"}]}}}, "dtype": {"type": "DT_FLOAT"}}}, {"name": "StatefulPartitionedCall/model/dense_1/MatMul/ReadVariableOp", "op": "Const", "attr": {"dtype": {"type": "DT_FLOAT"}, "value": {"tensor": {"dtype": "DT_FLOAT", "tensorShape": {"dim": [{"size": "192"}, {"size": "7"}]}}}}}, {"name": "StatefulPartitionedCall/model/dense_1/BiasAdd/ReadVariableOp", "op": "Const", "attr": {"value": {"tensor": {"dtype": "DT_FLOAT", "tensorShape": {"dim": [{"size": "7"}]}}}, "dtype": {"type": "DT_FLOAT"}}}, {"name": "input_ids", "op": "Placeholder", "attr": {"dtype": {"type": "DT_INT32"}, "shape": {"shape": {"dim": [{"size": "-1"}, {"size": "38"}]}}}}, {"name": "StatefulPartitionedCall/model/bert/embeddings/word_embeddings/embedding_lookup", "op": "GatherV2", "input": ["unknown", "input_ids", "StatefulPartitionedCall/model/bert/embeddings/word_embeddings/embedding_lookup/axis"], "attr": {"Taxis": {"type": "DT_INT32"}, "batch_dims": {"i": "0"}, "Tindices": {"type": "DT_INT32"}, "Tparams": {"type": "DT_FLOAT"}}}, {"name": "StatefulPartitionedCall/model/bert/embeddings/add", "op": "AddV2", "input": ["StatefulPartitionedCall/model/bert/embeddings/word_embeddings/embedding_lookup", "StatefulPartitionedCall/model/bert/embeddings/Reshape"], "attr": {"T": {"type": "DT_FLOAT"}}}, {"name": "StatefulPartitionedCall/model/bert/embeddings/LayerNorm/moments/mean", "op": "Mean", "input": ["StatefulPartitionedCall/model/bert/embeddings/add", "StatefulPartitionedCall/model/bert/embeddings/LayerNorm/moments/mean/reduction_indices"], "attr": {"keep_dims": {"b": true}, "Tidx": {"type": "DT_INT32"}, "T": {"type": "DT_FLOAT"}}}, {"name": "StatefulPartitionedCall/model/bert/embeddings/LayerNorm/moments/SquaredDifference", "op": "SquaredDifference", "input": ["StatefulPartitionedCall/model/bert/embeddings/add", "StatefulPartitionedCall/model/bert/embeddings/LayerNorm/moments/mean"], "attr": {"T": {"type": "DT_FLOAT"}}}, {"name": "StatefulPartitionedCall/model/bert/embeddings/LayerNorm/moments/variance", "op": "Mean", "input": ["StatefulPartitionedCall/model/bert/embeddings/LayerNorm/moments/SquaredDifference", "StatefulPartitionedCall/model/bert/embeddings/LayerNorm/moments/variance/reduction_indices"], "attr": {"keep_dims": {"b": true}, "Tidx": {"type": "DT_INT32"}, "T": {"type": "DT_FLOAT"}}}, {"name": "StatefulPartitionedCall/model/bert/embeddings/LayerNorm/add", "op": "AddV2", "input": ["StatefulPartitionedCall/model/bert/embeddings/LayerNorm/moments/variance", "StatefulPartitionedCall/model/bert/embeddings/LayerNorm/add/y"], "attr": {"T": {"type": "DT_FLOAT"}}}, {"name": "StatefulPartitionedCall/model/bert/embeddings/LayerNorm/Rsqrt", "op": "Rsqrt", "input": ["StatefulPartitionedCall/model/bert/embeddings/LayerNorm/add"], "attr": {"T": {"type": "DT_FLOAT"}}}, {"name": "StatefulPartitionedCall/model/bert/embeddings/LayerNorm/mul", "op": "Mul", "input": ["StatefulPartitionedCall/model/bert/embeddings/LayerNorm/ReadVariableOp", "StatefulPartitionedCall/model/bert/embeddings/LayerNorm/Rsqrt"], "attr": {"T": {"type": "DT_FLOAT"}}}, {"name": "StatefulPartitionedCall/model/bert/embeddings/LayerNorm/mul_2", "op": "Mul", "input": ["StatefulPartitionedCall/model/bert/embeddings/LayerNorm/moments/mean", "StatefulPartitionedCall/model/bert/embeddings/LayerNorm/mul"], "attr": {"T": {"type": "DT_FLOAT"}}}, {"name": "StatefulPartitionedCall/model/bert/embeddings/LayerNorm/mul_1", "op": "Mul", "input": ["StatefulPartitionedCall/model/bert/embeddings/add", "StatefulPartitionedCall/model/bert/embeddings/LayerNorm/mul"], "attr": {"T": {"type": "DT_FLOAT"}}}, {"name": "StatefulPartitionedCall/model/bert/embeddings/LayerNorm/sub", "op": "Sub", "input": ["StatefulPartitionedCall/model/bert/embeddings/LayerNorm/ReadVariableOp_1", "StatefulPartitionedCall/model/bert/embeddings/LayerNorm/mul_2"], "attr": {"T": {"type": "DT_FLOAT"}}}, {"name": "StatefulPartitionedCall/model/bert/embeddings/LayerNorm/add_1", "op": "AddV2", "input": ["StatefulPartitionedCall/model/bert/embeddings/LayerNorm/mul_1", "StatefulPartitionedCall/model/bert/embeddings/LayerNorm/sub"], "attr": {"T": {"type": "DT_FLOAT"}}}, {"name": "StatefulPartitionedCall/model/bert/encoder/layer_0/attention/self/query/Tensordot/Shape", "op": "Shape", "input": ["StatefulPartitionedCall/model/bert/embeddings/LayerNorm/add_1"], "attr": {"T": {"type": "DT_FLOAT"}, "out_type": {"type": "DT_INT32"}}}, {"name": "StatefulPartitionedCall/model/bert/encoder/layer_0/attention/self/key/Tensordot/Shape", "op": "Shape", "input": ["StatefulPartitionedCall/model/bert/embeddings/LayerNorm/add_1"], "attr": {"T": {"type": "DT_FLOAT"}, "out_type": {"type": "DT_INT32"}}}, {"name": "StatefulPartitionedCall/model/bert/encoder/layer_0/attention/self/Shape_1", "op": "Shape", "input": ["StatefulPartitionedCall/model/bert/embeddings/LayerNorm/add_1"], "attr": {"T": {"type": "DT_FLOAT"}, "out_type": {"type": "DT_INT32"}}}, {"name": "StatefulPartitionedCall/model/bert/encoder/layer_0/attention/self/Shape", "op": "Shape", "input": ["StatefulPartitionedCall/model/bert/embeddings/LayerNorm/add_1"], "attr": {"T": {"type": "DT_FLOAT"}, "out_type": {"type": "DT_INT32"}}}, {"name": "StatefulPartitionedCall/model/bert/encoder/layer_0/attention/self/value/Tensordot/Shape", "op": "Shape", "input": ["StatefulPartitionedCall/model/bert/embeddings/LayerNorm/add_1"], "attr": {"T": {"type": "DT_FLOAT"}, "out_type": {"type": "DT_INT32"}}}, {"name": "StatefulPartitionedCall/model/bert/encoder/layer_0/attention/self/Shape_2", "op": "Shape", "input": ["StatefulPartitionedCall/model/bert/embeddings/LayerNorm/add_1"], "attr": {"T": {"type": "DT_FLOAT"}, "out_type": {"type": "DT_INT32"}}}, {"name": "StatefulPartitionedCall/model/bert/encoder/layer_0/attention/self/query/Tensordot/GatherV2_1", "op": "GatherV2", "input": ["StatefulPartitionedCall/model/bert/encoder/layer_0/attention/self/query/Tensordot/Shape", "StatefulPartitionedCall/model/bert/encoder/layer_0/attention/self/query/Tensordot/axes", "StatefulPartitionedCall/model/bert/encoder/layer_0/attention/self/query/Tensordot/GatherV2_1/axis"], "attr": {"batch_dims": {"i": "0"}, "Tindices": {"type": "DT_INT32"}, "Tparams": {"type": "DT_INT32"}, "Taxis": {"type": "DT_INT32"}}}, {"name": "StatefulPartitionedCall/model/bert/encoder/layer_0/attention/self/query/Tensordot/GatherV2", "op": "GatherV2", "input": ["StatefulPartitionedCall/model/bert/encoder/layer_0/attention/self/query/Tensordot/Shape", "StatefulPartitionedCall/model/bert/encoder/layer_0/attention/self/query/Tensordot/free", "StatefulPartitionedCall/model/bert/encoder/layer_0/attention/self/query/Tensordot/GatherV2/axis"], "attr": {"Taxis": {"type": "DT_INT32"}, "batch_dims": {"i": "0"}, "Tindices": {"type": "DT_INT32"}, "Tparams": {"type": "DT_INT32"}}}, {"name": "StatefulPartitionedCall/model/bert/encoder/layer_0/attention/self/key/Tensordot/GatherV2_1", "op": "GatherV2", "input": ["StatefulPartitionedCall/model/bert/encoder/layer_0/attention/self/key/Tensordot/Shape", "StatefulPartitionedCall/model/bert/encoder/layer_0/attention/self/key/Tensordot/axes", "StatefulPartitionedCall/model/bert/encoder/layer_0/attention/self/key/Tensordot/GatherV2_1/axis"], "attr": {"Taxis": {"type": "DT_INT32"}, "batch_dims": {"i": "0"}, "Tindices": {"type": "DT_INT32"}, "Tparams": {"type": "DT_INT32"}}}, {"name": "StatefulPartitionedCall/model/bert/encoder/layer_0/attention/self/key/Tensordot/GatherV2", "op": "GatherV2", "input": ["StatefulPartitionedCall/model/bert/encoder/layer_0/attention/self/key/Tensordot/Shape", "StatefulPartitionedCall/model/bert/encoder/layer_0/attention/self/key/Tensordot/free", "StatefulPartitionedCall/model/bert/encoder/layer_0/attention/self/key/Tensordot/GatherV2/axis"], "attr": {"Taxis": {"type": "DT_INT32"}, "batch_dims": {"i": "0"}, "Tindices": {"type": "DT_INT32"}, "Tparams": {"type": "DT_INT32"}}}, {"name": "StatefulPartitionedCall/model/bert/encoder/layer_0/attention/self/strided_slice_1", "op": "StridedSlice", "input": ["StatefulPartitionedCall/model/bert/encoder/layer_0/attention/self/Shape_1", "StatefulPartitionedCall/model/bert/encoder/layer_0/attention/self/strided_slice_1/stack", "StatefulPartitionedCall/model/bert/encoder/layer_0/attention/self/strided_slice_1/stack_1", "StatefulPartitionedCall/model/bert/encoder/layer_0/attention/self/strided_slice_1/stack_2"], "attr": {"T": {"type": "DT_INT32"}, "Index": {"type": "DT_INT32"}, "shrink_axis_mask": {"i": "0"}, "ellipsis_mask": {"i": "0"}, "begin_mask": {"i": "1"}, "new_axis_mask": {"i": "0"}, "end_mask": {"i": "0"}}}, {"name": "StatefulPartitionedCall/model/bert/encoder/layer_0/attention/self/strided_slice", "op": "StridedSlice", "input": ["StatefulPartitionedCall/model/bert/encoder/layer_0/attention/self/Shape", "StatefulPartitionedCall/model/bert/encoder/layer_0/attention/self/strided_slice/stack", "StatefulPartitionedCall/model/bert/encoder/layer_0/attention/self/strided_slice/stack_1", "StatefulPartitionedCall/model/bert/encoder/layer_0/attention/self/strided_slice/stack_2"], "attr": {"shrink_axis_mask": {"i": "1"}, "ellipsis_mask": {"i": "0"}, "begin_mask": {"i": "0"}, "new_axis_mask": {"i": "0"}, "end_mask": {"i": "0"}, "Index": {"type": "DT_INT32"}, "T": {"type": "DT_INT32"}}}, {"name": "StatefulPartitionedCall/model/bert/encoder/layer_0/attention/self/value/Tensordot/GatherV2_1", "op": "GatherV2", "input": ["StatefulPartitionedCall/model/bert/encoder/layer_0/attention/self/value/Tensordot/Shape", "StatefulPartitionedCall/model/bert/encoder/layer_0/attention/self/value/Tensordot/axes", "StatefulPartitionedCall/model/bert/encoder/layer_0/attention/self/value/Tensordot/GatherV2_1/axis"], "attr": {"Taxis": {"type": "DT_INT32"}, "batch_dims": {"i": "0"}, "Tindices": {"type": "DT_INT32"}, "Tparams": {"type": "DT_INT32"}}}, {"name": "StatefulPartitionedCall/model/bert/encoder/layer_0/attention/self/value/Tensordot/GatherV2", "op": "GatherV2", "input": ["StatefulPartitionedCall/model/bert/encoder/layer_0/attention/self/value/Tensordot/Shape", "StatefulPartitionedCall/model/bert/encoder/layer_0/attention/self/value/Tensordot/free", "StatefulPartitionedCall/model/bert/encoder/layer_0/attention/self/value/Tensordot/GatherV2/axis"], "attr": {"Taxis": {"type": "DT_INT32"}, "batch_dims": {"i": "0"}, "Tindices": {"type": "DT_INT32"}, "Tparams": {"type": "DT_INT32"}}}, {"name": "StatefulPartitionedCall/model/bert/encoder/layer_0/attention/self/strided_slice_2", "op": "StridedSlice", "input": ["StatefulPartitionedCall/model/bert/encoder/layer_0/attention/self/Shape_2", "StatefulPartitionedCall/model/bert/encoder/layer_0/attention/self/strided_slice_2/stack", "StatefulPartitionedCall/model/bert/encoder/layer_0/attention/self/strided_slice_2/stack_1", "StatefulPartitionedCall/model/bert/encoder/layer_0/attention/self/strided_slice_2/stack_2"], "attr": {"shrink_axis_mask": {"i": "1"}, "begin_mask": {"i": "0"}, "ellipsis_mask": {"i": "0"}, "new_axis_mask": {"i": "0"}, "end_mask": {"i": "0"}, "Index": {"type": "DT_INT32"}, "T": {"type": "DT_INT32"}}}, {"name": "StatefulPartitionedCall/model/bert/encoder/layer_0/attention/self/strided_slice_3", "op": "StridedSlice", "input": ["StatefulPartitionedCall/model/bert/encoder/layer_0/attention/self/Shape_2", "StatefulPartitionedCall/model/bert/encoder/layer_0/attention/self/strided_slice_3/stack", "StatefulPartitionedCall/model/bert/encoder/layer_0/attention/self/strided_slice_3/stack_1", "StatefulPartitionedCall/model/bert/encoder/layer_0/attention/self/strided_slice_3/stack_2"], "attr": {"T": {"type": "DT_INT32"}, "Index": {"type": "DT_INT32"}, "shrink_axis_mask": {"i": "1"}, "begin_mask": {"i": "0"}, "ellipsis_mask": {"i": "0"}, "new_axis_mask": {"i": "0"}, "end_mask": {"i": "0"}}}, {"name": "StatefulPartitionedCall/model/bert/encoder/layer_0/attention/self/query/Tensordot/Prod_1", "op": "Prod", "input": ["StatefulPartitionedCall/model/bert/encoder/layer_0/attention/self/query/Tensordot/GatherV2_1", "StatefulPartitionedCall/model/bert/encoder/layer_0/attention/self/query/Tensordot/Const_1"], "attr": {"keep_dims": {"b": false}, "Tidx": {"type": "DT_INT32"}, "T": {"type": "DT_INT32"}}}, {"name": "StatefulPartitionedCall/model/bert/encoder/layer_0/attention/self/query/Tensordot/Prod", "op": "Prod", "input": ["StatefulPartitionedCall/model/bert/encoder/layer_0/attention/self/query/Tensordot/GatherV2", "StatefulPartitionedCall/model/bert/encoder/layer_0/attention/self/query/Tensordot/Const"], "attr": {"T": {"type": "DT_INT32"}, "keep_dims": {"b": false}, "Tidx": {"type": "DT_INT32"}}}, {"name": "StatefulPartitionedCall/model/bert/encoder/layer_0/attention/self/query/Tensordot/concat_1", "op": "ConcatV2", "input": ["StatefulPartitionedCall/model/bert/encoder/layer_0/attention/self/query/Tensordot/GatherV2", "StatefulPartitionedCall/model/bert/encoder/layer_0/attention/self/query/Tensordot/Const_2", "StatefulPartitionedCall/model/bert/encoder/layer_0/attention/self/query/Tensordot/concat_1/axis"], "attr": {"N": {"i": "2"}, "Tidx": {"type": "DT_INT32"}, "T": {"type": "DT_INT32"}}}, {"name": "StatefulPartitionedCall/model/bert/encoder/layer_0/attention/self/key/Tensordot/Prod_1", "op": "Prod", "input": ["StatefulPartitionedCall/model/bert/encoder/layer_0/attention/self/key/Tensordot/GatherV2_1", "StatefulPartitionedCall/model/bert/encoder/layer_0/attention/self/key/Tensordot/Const_1"], "attr": {"keep_dims": {"b": false}, "Tidx": {"type": "DT_INT32"}, "T": {"type": "DT_INT32"}}}, {"name": "StatefulPartitionedCall/model/bert/encoder/layer_0/attention/self/key/Tensordot/Prod", "op": "Prod", "input": ["StatefulPartitionedCall/model/bert/encoder/layer_0/attention/self/key/Tensordot/GatherV2", "StatefulPartitionedCall/model/bert/encoder/layer_0/attention/self/key/Tensordot/Const"], "attr": {"keep_dims": {"b": false}, "Tidx": {"type": "DT_INT32"}, "T": {"type": "DT_INT32"}}}, {"name": "StatefulPartitionedCall/model/bert/encoder/layer_0/attention/self/key/Tensordot/concat_1", "op": "ConcatV2", "input": ["StatefulPartitionedCall/model/bert/encoder/layer_0/attention/self/key/Tensordot/GatherV2", "StatefulPartitionedCall/model/bert/encoder/layer_0/attention/self/key/Tensordot/Const_2", "StatefulPartitionedCall/model/bert/encoder/layer_0/attention/self/key/Tensordot/concat_1/axis"], "attr": {"Tidx": {"type": "DT_INT32"}, "T": {"type": "DT_INT32"}, "N": {"i": "2"}}}, {"name": "StatefulPartitionedCall/model/bert/encoder/layer_0/attention/self/ones_1", "op": "Fill", "input": ["StatefulPartitionedCall/model/bert/encoder/layer_0/attention/self/strided_slice_1", "StatefulPartitionedCall/model/bert/encoder/layer_0/attention/self/ones_1/Const"], "attr": {"T": {"type": "DT_FLOAT"}, "index_type": {"type": "DT_INT32"}}}, {"name": "StatefulPartitionedCall/model/bert/encoder/layer_0/attention/self/ones/packed", "op": "Pack", "input": ["StatefulPartitionedCall/model/bert/encoder/layer_0/attention/self/strided_slice", "StatefulPartitionedCall/model/bert/encoder/layer_0/attention/self/ones/packed/1"], "attr": {"T": {"type": "DT_INT32"}, "axis": {"i": "0"}, "N": {"i": "2"}}}, {"name": "StatefulPartitionedCall/model/bert/encoder/layer_0/attention/self/value/Tensordot/Prod_1", "op": "Prod", "input": ["StatefulPartitionedCall/model/bert/encoder/layer_0/attention/self/value/Tensordot/GatherV2_1", "StatefulPartitionedCall/model/bert/encoder/layer_0/attention/self/value/Tensordot/Const_1"], "attr": {"keep_dims": {"b": false}, "Tidx": {"type": "DT_INT32"}, "T": {"type": "DT_INT32"}}}, {"name": "StatefulPartitionedCall/model/bert/encoder/layer_0/attention/self/value/Tensordot/Prod", "op": "Prod", "input": ["StatefulPartitionedCall/model/bert/encoder/layer_0/attention/self/value/Tensordot/GatherV2", "StatefulPartitionedCall/model/bert/encoder/layer_0/attention/self/value/Tensordot/Const"], "attr": {"T": {"type": "DT_INT32"}, "keep_dims": {"b": false}, "Tidx": {"type": "DT_INT32"}}}, {"name": "StatefulPartitionedCall/model/bert/encoder/layer_0/attention/self/value/Tensordot/concat_1", "op": "ConcatV2", "input": ["StatefulPartitionedCall/model/bert/encoder/layer_0/attention/self/value/Tensordot/GatherV2", "StatefulPartitionedCall/model/bert/encoder/layer_0/attention/self/value/Tensordot/Const_2", "StatefulPartitionedCall/model/bert/encoder/layer_0/attention/self/value/Tensordot/concat_1/axis"], "attr": {"N": {"i": "2"}, "Tidx": {"type": "DT_INT32"}, "T": {"type": "DT_INT32"}}}, {"name": "StatefulPartitionedCall/model/bert/encoder/layer_0/attention/self/Reshape/shape", "op": "Pack", "input": ["StatefulPartitionedCall/model/bert/encoder/layer_0/attention/self/strided_slice_2", "StatefulPartitionedCall/model/bert/encoder/layer_0/attention/self/strided_slice_3", "StatefulPartitionedCall/model/bert/encoder/layer_0/attention/self/Reshape/shape/2", "StatefulPartitionedCall/model/bert/encoder/layer_0/attention/self/Reshape/shape/3"], "attr": {"T": {"type": "DT_INT32"}, "axis": {"i": "0"}, "N": {"i": "4"}}}, {"name": "StatefulPartitionedCall/model/bert/encoder/layer_0/attention/self/Reshape_1/shape", "op": "Pack", "input": ["StatefulPartitionedCall/model/bert/encoder/layer_0/attention/self/strided_slice_2", "StatefulPartitionedCall/model/bert/encoder/layer_0/attention/self/strided_slice_3", "StatefulPartitionedCall/model/bert/encoder/layer_0/attention/self/Reshape_1/shape/2", "StatefulPartitionedCall/model/bert/encoder/layer_0/attention/self/Reshape_1/shape/3"], "attr": {"T": {"type": "DT_INT32"}, "axis": {"i": "0"}, "N": {"i": "4"}}}, {"name": "StatefulPartitionedCall/model/bert/encoder/layer_0/attention/self/Reshape_2/shape", "op": "Pack", "input": ["StatefulPartitionedCall/model/bert/encoder/layer_0/attention/self/strided_slice_2", "StatefulPartitionedCall/model/bert/encoder/layer_0/attention/self/strided_slice_3", "StatefulPartitionedCall/model/bert/encoder/layer_0/attention/self/Reshape_2/shape/2", "StatefulPartitionedCall/model/bert/encoder/layer_0/attention/self/Reshape_2/shape/3"], "attr": {"T": {"type": "DT_INT32"}, "axis": {"i": "0"}, "N": {"i": "4"}}}, {"name": "StatefulPartitionedCall/model/bert/encoder/layer_0/attention/self/Reshape_3/shape", "op": "Pack", "input": ["StatefulPartitionedCall/model/bert/encoder/layer_0/attention/self/strided_slice_2", "StatefulPartitionedCall/model/bert/encoder/layer_0/attention/self/strided_slice_3", "StatefulPartitionedCall/model/bert/encoder/layer_0/attention/self/Reshape_3/shape/2"], "attr": {"N": {"i": "3"}, "T": {"type": "DT_INT32"}, "axis": {"i": "0"}}}, {"name": "StatefulPartitionedCall/model/bert/encoder/layer_0/attention/self/query/Tensordot/stack", "op": "Pack", "input": ["StatefulPartitionedCall/model/bert/encoder/layer_0/attention/self/query/Tensordot/Prod", "StatefulPartitionedCall/model/bert/encoder/layer_0/attention/self/query/Tensordot/Prod_1"], "attr": {"T": {"type": "DT_INT32"}, "axis": {"i": "0"}, "N": {"i": "2"}}}, {"name": "StatefulPartitionedCall/model/bert/encoder/layer_0/attention/self/key/Tensordot/stack", "op": "Pack", "input": ["StatefulPartitionedCall/model/bert/encoder/layer_0/attention/self/key/Tensordot/Prod", "StatefulPartitionedCall/model/bert/encoder/layer_0/attention/self/key/Tensordot/Prod_1"], "attr": {"T": {"type": "DT_INT32"}, "axis": {"i": "0"}, "N": {"i": "2"}}}, {"name": "StatefulPartitionedCall/model/bert/encoder/layer_0/attention/self/ExpandDims_1", "op": "ExpandDims", "input": ["StatefulPartitionedCall/model/bert/encoder/layer_0/attention/self/ones_1", "StatefulPartitionedCall/model/bert/encoder/layer_0/attention/self/ExpandDims_1/dim"], "attr": {"T": {"type": "DT_FLOAT"}, "Tdim": {"type": "DT_INT32"}}}, {"name": "StatefulPartitionedCall/model/bert/encoder/layer_0/attention/self/ones", "op": "Fill", "input": ["StatefulPartitionedCall/model/bert/encoder/layer_0/attention/self/ones/packed", "StatefulPartitionedCall/model/bert/encoder/layer_0/attention/self/ones/Const"], "attr": {"T": {"type": "DT_INT32"}, "index_type": {"type": "DT_INT32"}}}, {"name": "StatefulPartitionedCall/model/bert/encoder/layer_0/attention/self/value/Tensordot/stack", "op": "Pack", "input": ["StatefulPartitionedCall/model/bert/encoder/layer_0/attention/self/value/Tensordot/Prod", "StatefulPartitionedCall/model/bert/encoder/layer_0/attention/self/value/Tensordot/Prod_1"], "attr": {"N": {"i": "2"}, "T": {"type": "DT_INT32"}, "axis": {"i": "0"}}}, {"name": "StatefulPartitionedCall/model/bert/encoder/layer_0/attention/self/query/Tensordot/Reshape", "op": "Reshape", "input": ["StatefulPartitionedCall/model/bert/embeddings/LayerNorm/add_1", "StatefulPartitionedCall/model/bert/encoder/layer_0/attention/self/query/Tensordot/stack"], "attr": {"T": {"type": "DT_FLOAT"}, "Tshape": {"type": "DT_INT32"}}}, {"name": "StatefulPartitionedCall/model/bert/encoder/layer_0/attention/self/key/Tensordot/Reshape", "op": "Reshape", "input": ["StatefulPartitionedCall/model/bert/embeddings/LayerNorm/add_1", "StatefulPartitionedCall/model/bert/encoder/layer_0/attention/self/key/Tensordot/stack"], "attr": {"T": {"type": "DT_FLOAT"}, "Tshape": {"type": "DT_INT32"}}}, {"name": "StatefulPartitionedCall/model/bert/encoder/layer_0/attention/self/ExpandDims", "op": "ExpandDims", "input": ["StatefulPartitionedCall/model/bert/encoder/layer_0/attention/self/ones", "StatefulPartitionedCall/model/bert/encoder/layer_0/attention/self/ExpandDims/dim"], "attr": {"Tdim": {"type": "DT_INT32"}, "T": {"type": "DT_INT32"}}}, {"name": "StatefulPartitionedCall/model/bert/encoder/layer_0/attention/self/value/Tensordot/Reshape", "op": "Reshape", "input": ["StatefulPartitionedCall/model/bert/embeddings/LayerNorm/add_1", "StatefulPartitionedCall/model/bert/encoder/layer_0/attention/self/value/Tensordot/stack"], "attr": {"T": {"type": "DT_FLOAT"}, "Tshape": {"type": "DT_INT32"}}}, {"name": "StatefulPartitionedCall/model/bert/encoder/layer_0/attention/self/query/Tensordot/MatMul", "op": "MatMul", "input": ["StatefulPartitionedCall/model/bert/encoder/layer_0/attention/self/query/Tensordot/Reshape", "StatefulPartitionedCall/model/bert/encoder/layer_0/attention/self/query/Tensordot/ReadVariableOp"], "device": "/device:CPU:0", "attr": {"T": {"type": "DT_FLOAT"}, "transpose_a": {"b": false}, "transpose_b": {"b": false}}}, {"name": "StatefulPartitionedCall/model/bert/encoder/layer_0/attention/self/key/Tensordot/MatMul", "op": "MatMul", "input": ["StatefulPartitionedCall/model/bert/encoder/layer_0/attention/self/key/Tensordot/Reshape", "StatefulPartitionedCall/model/bert/encoder/layer_0/attention/self/key/Tensordot/ReadVariableOp"], "device": "/device:CPU:0", "attr": {"T": {"type": "DT_FLOAT"}, "transpose_a": {"b": false}, "transpose_b": {"b": false}}}, {"name": "StatefulPartitionedCall/model/bert/encoder/layer_0/attention/self/Cast", "op": "Cast", "input": ["StatefulPartitionedCall/model/bert/encoder/layer_0/attention/self/ExpandDims"], "attr": {"SrcT": {"type": "DT_INT32"}, "Truncate": {"b": false}, "DstT": {"type": "DT_FLOAT"}}}, {"name": "StatefulPartitionedCall/model/bert/encoder/layer_0/attention/self/value/Tensordot/MatMul", "op": "MatMul", "input": ["StatefulPartitionedCall/model/bert/encoder/layer_0/attention/self/value/Tensordot/Reshape", "StatefulPartitionedCall/model/bert/encoder/layer_0/attention/self/value/Tensordot/ReadVariableOp"], "device": "/device:CPU:0", "attr": {"T": {"type": "DT_FLOAT"}, "transpose_a": {"b": false}, "transpose_b": {"b": false}}}, {"name": "StatefulPartitionedCall/model/bert/encoder/layer_0/attention/self/query/Tensordot", "op": "Reshape", "input": ["StatefulPartitionedCall/model/bert/encoder/layer_0/attention/self/query/Tensordot/MatMul", "StatefulPartitionedCall/model/bert/encoder/layer_0/attention/self/query/Tensordot/concat_1"], "attr": {"T": {"type": "DT_FLOAT"}, "Tshape": {"type": "DT_INT32"}}}, {"name": "StatefulPartitionedCall/model/bert/encoder/layer_0/attention/self/key/Tensordot", "op": "Reshape", "input": ["StatefulPartitionedCall/model/bert/encoder/layer_0/attention/self/key/Tensordot/MatMul", "StatefulPartitionedCall/model/bert/encoder/layer_0/attention/self/key/Tensordot/concat_1"], "attr": {"T": {"type": "DT_FLOAT"}, "Tshape": {"type": "DT_INT32"}}}, {"name": "StatefulPartitionedCall/model/bert/encoder/layer_0/attention/self/mul", "op": "Mul", "input": ["StatefulPartitionedCall/model/bert/encoder/layer_0/attention/self/ExpandDims_1", "StatefulPartitionedCall/model/bert/encoder/layer_0/attention/self/Cast"], "attr": {"T": {"type": "DT_FLOAT"}}}, {"name": "StatefulPartitionedCall/model/bert/encoder/layer_0/attention/self/value/Tensordot", "op": "Reshape", "input": ["StatefulPartitionedCall/model/bert/encoder/layer_0/attention/self/value/Tensordot/MatMul", "StatefulPartitionedCall/model/bert/encoder/layer_0/attention/self/value/Tensordot/concat_1"], "attr": {"T": {"type": "DT_FLOAT"}, "Tshape": {"type": "DT_INT32"}}}, {"name": "StatefulPartitionedCall/model/bert/encoder/layer_0/attention/self/query/BiasAdd", "op": "BiasAdd", "input": ["StatefulPartitionedCall/model/bert/encoder/layer_0/attention/self/query/Tensordot", "StatefulPartitionedCall/model/bert/encoder/layer_0/attention/self/query/BiasAdd/ReadVariableOp"], "attr": {"T": {"type": "DT_FLOAT"}, "data_format": {"s": "TkhXQw=="}}}, {"name": "StatefulPartitionedCall/model/bert/encoder/layer_0/attention/self/key/BiasAdd", "op": "BiasAdd", "input": ["StatefulPartitionedCall/model/bert/encoder/layer_0/attention/self/key/Tensordot", "StatefulPartitionedCall/model/bert/encoder/layer_0/attention/self/key/BiasAdd/ReadVariableOp"], "attr": {"T": {"type": "DT_FLOAT"}, "data_format": {"s": "TkhXQw=="}}}, {"name": "StatefulPartitionedCall/model/bert/encoder/layer_0/attention/self/ExpandDims_2", "op": "ExpandDims", "input": ["StatefulPartitionedCall/model/bert/encoder/layer_0/attention/self/mul", "StatefulPartitionedCall/model/bert/encoder/layer_0/attention/self/ExpandDims_2/dim"], "attr": {"Tdim": {"type": "DT_INT32"}, "T": {"type": "DT_FLOAT"}}}, {"name": "StatefulPartitionedCall/model/bert/encoder/layer_0/attention/self/value/BiasAdd", "op": "BiasAdd", "input": ["StatefulPartitionedCall/model/bert/encoder/layer_0/attention/self/value/Tensordot", "StatefulPartitionedCall/model/bert/encoder/layer_0/attention/self/value/BiasAdd/ReadVariableOp"], "attr": {"T": {"type": "DT_FLOAT"}, "data_format": {"s": "TkhXQw=="}}}, {"name": "StatefulPartitionedCall/model/bert/encoder/layer_0/attention/self/Reshape", "op": "Reshape", "input": ["StatefulPartitionedCall/model/bert/encoder/layer_0/attention/self/query/BiasAdd", "StatefulPartitionedCall/model/bert/encoder/layer_0/attention/self/Reshape/shape"], "attr": {"T": {"type": "DT_FLOAT"}, "Tshape": {"type": "DT_INT32"}}}, {"name": "StatefulPartitionedCall/model/bert/encoder/layer_0/attention/self/Reshape_1", "op": "Reshape", "input": ["StatefulPartitionedCall/model/bert/encoder/layer_0/attention/self/key/BiasAdd", "StatefulPartitionedCall/model/bert/encoder/layer_0/attention/self/Reshape_1/shape"], "attr": {"T": {"type": "DT_FLOAT"}, "Tshape": {"type": "DT_INT32"}}}, {"name": "StatefulPartitionedCall/model/bert/encoder/layer_0/attention/self/sub", "op": "Sub", "input": ["StatefulPartitionedCall/model/bert/encoder/layer_0/attention/self/sub/x", "StatefulPartitionedCall/model/bert/encoder/layer_0/attention/self/ExpandDims_2"], "attr": {"T": {"type": "DT_FLOAT"}}}, {"name": "StatefulPartitionedCall/model/bert/encoder/layer_0/attention/self/Reshape_2", "op": "Reshape", "input": ["StatefulPartitionedCall/model/bert/encoder/layer_0/attention/self/value/BiasAdd", "StatefulPartitionedCall/model/bert/encoder/layer_0/attention/self/Reshape_2/shape"], "attr": {"Tshape": {"type": "DT_INT32"}, "T": {"type": "DT_FLOAT"}}}, {"name": "StatefulPartitionedCall/model/bert/encoder/layer_0/attention/self/transpose", "op": "Transpose", "input": ["StatefulPartitionedCall/model/bert/encoder/layer_0/attention/self/Reshape", "StatefulPartitionedCall/model/bert/encoder/layer_0/attention/self/transpose/perm"], "attr": {"T": {"type": "DT_FLOAT"}, "Tperm": {"type": "DT_INT32"}}}, {"name": "StatefulPartitionedCall/model/bert/encoder/layer_0/attention/self/transpose_1", "op": "Transpose", "input": ["StatefulPartitionedCall/model/bert/encoder/layer_0/attention/self/Reshape_1", "StatefulPartitionedCall/model/bert/encoder/layer_0/attention/self/transpose_1/perm"], "attr": {"T": {"type": "DT_FLOAT"}, "Tperm": {"type": "DT_INT32"}}}, {"name": "StatefulPartitionedCall/model/bert/encoder/layer_0/attention/self/mul_1", "op": "Mul", "input": ["StatefulPartitionedCall/model/bert/encoder/layer_0/attention/self/sub", "StatefulPartitionedCall/model/bert/encoder/layer_0/attention/self/mul_1/y"], "attr": {"T": {"type": "DT_FLOAT"}}}, {"name": "StatefulPartitionedCall/model/bert/encoder/layer_0/attention/self/transpose_2", "op": "Transpose", "input": ["StatefulPartitionedCall/model/bert/encoder/layer_0/attention/self/Reshape_2", "StatefulPartitionedCall/model/bert/encoder/layer_0/attention/self/transpose_2/perm"], "attr": {"Tperm": {"type": "DT_INT32"}, "T": {"type": "DT_FLOAT"}}}, {"name": "StatefulPartitionedCall/model/bert/encoder/layer_0/attention/self/MatMul", "op": "BatchMatMulV2", "input": ["StatefulPartitionedCall/model/bert/encoder/layer_0/attention/self/transpose", "StatefulPartitionedCall/model/bert/encoder/layer_0/attention/self/transpose_1"], "attr": {"adj_y": {"b": true}, "T": {"type": "DT_FLOAT"}, "adj_x": {"b": false}}}, {"name": "StatefulPartitionedCall/model/bert/encoder/layer_0/attention/self/truediv", "op": "Mul", "input": ["StatefulPartitionedCall/model/bert/encoder/layer_0/attention/self/MatMul", "ConstantFolding/StatefulPartitionedCall/model/bert/encoder/layer_0/attention/self/truediv_recip"], "attr": {"T": {"type": "DT_FLOAT"}}}, {"name": "StatefulPartitionedCall/model/bert/encoder/layer_0/attention/self/Add", "op": "Add", "input": ["StatefulPartitionedCall/model/bert/encoder/layer_0/attention/self/truediv", "StatefulPartitionedCall/model/bert/encoder/layer_0/attention/self/mul_1"], "attr": {"T": {"type": "DT_FLOAT"}}}, {"name": "StatefulPartitionedCall/model/bert/encoder/layer_0/attention/self/Softmax", "op": "Softmax", "input": ["StatefulPartitionedCall/model/bert/encoder/layer_0/attention/self/Add"], "attr": {"T": {"type": "DT_FLOAT"}}}, {"name": "StatefulPartitionedCall/model/bert/encoder/layer_0/attention/self/MatMul_1", "op": "BatchMatMulV2", "input": ["StatefulPartitionedCall/model/bert/encoder/layer_0/attention/self/Softmax", "StatefulPartitionedCall/model/bert/encoder/layer_0/attention/self/transpose_2"], "attr": {"adj_x": {"b": false}, "adj_y": {"b": false}, "T": {"type": "DT_FLOAT"}}}, {"name": "StatefulPartitionedCall/model/bert/encoder/layer_0/attention/self/transpose_3", "op": "Transpose", "input": ["StatefulPartitionedCall/model/bert/encoder/layer_0/attention/self/MatMul_1", "StatefulPartitionedCall/model/bert/encoder/layer_0/attention/self/transpose_3/perm"], "attr": {"Tperm": {"type": "DT_INT32"}, "T": {"type": "DT_FLOAT"}}}, {"name": "StatefulPartitionedCall/model/bert/encoder/layer_0/attention/self/Reshape_3", "op": "Reshape", "input": ["StatefulPartitionedCall/model/bert/encoder/layer_0/attention/self/transpose_3", "StatefulPartitionedCall/model/bert/encoder/layer_0/attention/self/Reshape_3/shape"], "attr": {"T": {"type": "DT_FLOAT"}, "Tshape": {"type": "DT_INT32"}}}, {"name": "StatefulPartitionedCall/model/bert/encoder/layer_0/attention/output/dense/Tensordot/Shape", "op": "Shape", "input": ["StatefulPartitionedCall/model/bert/encoder/layer_0/attention/self/Reshape_3"], "attr": {"T": {"type": "DT_FLOAT"}, "out_type": {"type": "DT_INT32"}}}, {"name": "StatefulPartitionedCall/model/bert/encoder/layer_0/attention/output/dense/Tensordot/GatherV2_1", "op": "GatherV2", "input": ["StatefulPartitionedCall/model/bert/encoder/layer_0/attention/output/dense/Tensordot/Shape", "StatefulPartitionedCall/model/bert/encoder/layer_0/attention/output/dense/Tensordot/axes", "StatefulPartitionedCall/model/bert/encoder/layer_0/attention/output/dense/Tensordot/GatherV2_1/axis"], "attr": {"Taxis": {"type": "DT_INT32"}, "batch_dims": {"i": "0"}, "Tindices": {"type": "DT_INT32"}, "Tparams": {"type": "DT_INT32"}}}, {"name": "StatefulPartitionedCall/model/bert/encoder/layer_0/attention/output/dense/Tensordot/GatherV2", "op": "GatherV2", "input": ["StatefulPartitionedCall/model/bert/encoder/layer_0/attention/output/dense/Tensordot/Shape", "StatefulPartitionedCall/model/bert/encoder/layer_0/attention/output/dense/Tensordot/free", "StatefulPartitionedCall/model/bert/encoder/layer_0/attention/output/dense/Tensordot/GatherV2/axis"], "attr": {"Taxis": {"type": "DT_INT32"}, "batch_dims": {"i": "0"}, "Tindices": {"type": "DT_INT32"}, "Tparams": {"type": "DT_INT32"}}}, {"name": "StatefulPartitionedCall/model/bert/encoder/layer_0/attention/output/dense/Tensordot/Prod_1", "op": "Prod", "input": ["StatefulPartitionedCall/model/bert/encoder/layer_0/attention/output/dense/Tensordot/GatherV2_1", "StatefulPartitionedCall/model/bert/encoder/layer_0/attention/output/dense/Tensordot/Const_1"], "attr": {"keep_dims": {"b": false}, "Tidx": {"type": "DT_INT32"}, "T": {"type": "DT_INT32"}}}, {"name": "StatefulPartitionedCall/model/bert/encoder/layer_0/attention/output/dense/Tensordot/Prod", "op": "Prod", "input": ["StatefulPartitionedCall/model/bert/encoder/layer_0/attention/output/dense/Tensordot/GatherV2", "StatefulPartitionedCall/model/bert/encoder/layer_0/attention/output/dense/Tensordot/Const"], "attr": {"T": {"type": "DT_INT32"}, "keep_dims": {"b": false}, "Tidx": {"type": "DT_INT32"}}}, {"name": "StatefulPartitionedCall/model/bert/encoder/layer_0/attention/output/dense/Tensordot/concat_1", "op": "ConcatV2", "input": ["StatefulPartitionedCall/model/bert/encoder/layer_0/attention/output/dense/Tensordot/GatherV2", "StatefulPartitionedCall/model/bert/encoder/layer_0/attention/output/dense/Tensordot/Const_2", "StatefulPartitionedCall/model/bert/encoder/layer_0/attention/output/dense/Tensordot/concat_1/axis"], "attr": {"Tidx": {"type": "DT_INT32"}, "T": {"type": "DT_INT32"}, "N": {"i": "2"}}}, {"name": "StatefulPartitionedCall/model/bert/encoder/layer_0/attention/output/dense/Tensordot/stack", "op": "Pack", "input": ["StatefulPartitionedCall/model/bert/encoder/layer_0/attention/output/dense/Tensordot/Prod", "StatefulPartitionedCall/model/bert/encoder/layer_0/attention/output/dense/Tensordot/Prod_1"], "attr": {"T": {"type": "DT_INT32"}, "axis": {"i": "0"}, "N": {"i": "2"}}}, {"name": "StatefulPartitionedCall/model/bert/encoder/layer_0/attention/output/dense/Tensordot/Reshape", "op": "Reshape", "input": ["StatefulPartitionedCall/model/bert/encoder/layer_0/attention/self/transpose_3", "StatefulPartitionedCall/model/bert/encoder/layer_0/attention/output/dense/Tensordot/stack"], "attr": {"T": {"type": "DT_FLOAT"}, "Tshape": {"type": "DT_INT32"}}}, {"name": "StatefulPartitionedCall/model/bert/encoder/layer_0/attention/output/dense/Tensordot/MatMul", "op": "MatMul", "input": ["StatefulPartitionedCall/model/bert/encoder/layer_0/attention/output/dense/Tensordot/Reshape", "StatefulPartitionedCall/model/bert/encoder/layer_0/attention/output/dense/Tensordot/ReadVariableOp"], "device": "/device:CPU:0", "attr": {"transpose_a": {"b": false}, "transpose_b": {"b": false}, "T": {"type": "DT_FLOAT"}}}, {"name": "StatefulPartitionedCall/model/bert/encoder/layer_0/attention/output/dense/Tensordot", "op": "Reshape", "input": ["StatefulPartitionedCall/model/bert/encoder/layer_0/attention/output/dense/Tensordot/MatMul", "StatefulPartitionedCall/model/bert/encoder/layer_0/attention/output/dense/Tensordot/concat_1"], "attr": {"T": {"type": "DT_FLOAT"}, "Tshape": {"type": "DT_INT32"}}}, {"name": "StatefulPartitionedCall/model/bert/encoder/layer_0/attention/output/dense/BiasAdd", "op": "BiasAdd", "input": ["StatefulPartitionedCall/model/bert/encoder/layer_0/attention/output/dense/Tensordot", "StatefulPartitionedCall/model/bert/encoder/layer_0/attention/output/dense/BiasAdd/ReadVariableOp"], "attr": {"data_format": {"s": "TkhXQw=="}, "T": {"type": "DT_FLOAT"}}}, {"name": "StatefulPartitionedCall/model/bert/encoder/layer_0/attention/output/Add", "op": "Add", "input": ["StatefulPartitionedCall/model/bert/encoder/layer_0/attention/output/dense/BiasAdd", "StatefulPartitionedCall/model/bert/embeddings/LayerNorm/add_1"], "attr": {"T": {"type": "DT_FLOAT"}}}, {"name": "StatefulPartitionedCall/model/bert/encoder/layer_0/attention/output/LayerNorm/moments/mean", "op": "Mean", "input": ["StatefulPartitionedCall/model/bert/encoder/layer_0/attention/output/Add", "StatefulPartitionedCall/model/bert/encoder/layer_0/attention/output/LayerNorm/moments/mean/reduction_indices"], "attr": {"keep_dims": {"b": true}, "Tidx": {"type": "DT_INT32"}, "T": {"type": "DT_FLOAT"}}}, {"name": "StatefulPartitionedCall/model/bert/encoder/layer_0/attention/output/LayerNorm/moments/SquaredDifference", "op": "SquaredDifference", "input": ["StatefulPartitionedCall/model/bert/encoder/layer_0/attention/output/Add", "StatefulPartitionedCall/model/bert/encoder/layer_0/attention/output/LayerNorm/moments/mean"], "attr": {"T": {"type": "DT_FLOAT"}}}, {"name": "StatefulPartitionedCall/model/bert/encoder/layer_0/attention/output/LayerNorm/moments/variance", "op": "Mean", "input": ["StatefulPartitionedCall/model/bert/encoder/layer_0/attention/output/LayerNorm/moments/SquaredDifference", "StatefulPartitionedCall/model/bert/encoder/layer_0/attention/output/LayerNorm/moments/variance/reduction_indices"], "attr": {"T": {"type": "DT_FLOAT"}, "keep_dims": {"b": true}, "Tidx": {"type": "DT_INT32"}}}, {"name": "StatefulPartitionedCall/model/bert/encoder/layer_0/attention/output/LayerNorm/add", "op": "AddV2", "input": ["StatefulPartitionedCall/model/bert/encoder/layer_0/attention/output/LayerNorm/moments/variance", "StatefulPartitionedCall/model/bert/encoder/layer_0/attention/output/LayerNorm/add/y"], "attr": {"T": {"type": "DT_FLOAT"}}}, {"name": "StatefulPartitionedCall/model/bert/encoder/layer_0/attention/output/LayerNorm/Rsqrt", "op": "Rsqrt", "input": ["StatefulPartitionedCall/model/bert/encoder/layer_0/attention/output/LayerNorm/add"], "attr": {"T": {"type": "DT_FLOAT"}}}, {"name": "StatefulPartitionedCall/model/bert/encoder/layer_0/attention/output/LayerNorm/mul", "op": "Mul", "input": ["StatefulPartitionedCall/model/bert/encoder/layer_0/attention/output/LayerNorm/ReadVariableOp", "StatefulPartitionedCall/model/bert/encoder/layer_0/attention/output/LayerNorm/Rsqrt"], "attr": {"T": {"type": "DT_FLOAT"}}}, {"name": "StatefulPartitionedCall/model/bert/encoder/layer_0/attention/output/LayerNorm/mul_2", "op": "Mul", "input": ["StatefulPartitionedCall/model/bert/encoder/layer_0/attention/output/LayerNorm/moments/mean", "StatefulPartitionedCall/model/bert/encoder/layer_0/attention/output/LayerNorm/mul"], "attr": {"T": {"type": "DT_FLOAT"}}}, {"name": "StatefulPartitionedCall/model/bert/encoder/layer_0/attention/output/LayerNorm/mul_1", "op": "Mul", "input": ["StatefulPartitionedCall/model/bert/encoder/layer_0/attention/output/Add", "StatefulPartitionedCall/model/bert/encoder/layer_0/attention/output/LayerNorm/mul"], "attr": {"T": {"type": "DT_FLOAT"}}}, {"name": "StatefulPartitionedCall/model/bert/encoder/layer_0/attention/output/LayerNorm/sub", "op": "Sub", "input": ["StatefulPartitionedCall/model/bert/encoder/layer_0/attention/output/LayerNorm/ReadVariableOp_1", "StatefulPartitionedCall/model/bert/encoder/layer_0/attention/output/LayerNorm/mul_2"], "attr": {"T": {"type": "DT_FLOAT"}}}, {"name": "StatefulPartitionedCall/model/bert/encoder/layer_0/attention/output/LayerNorm/add_1", "op": "AddV2", "input": ["StatefulPartitionedCall/model/bert/encoder/layer_0/attention/output/LayerNorm/mul_1", "StatefulPartitionedCall/model/bert/encoder/layer_0/attention/output/LayerNorm/sub"], "attr": {"T": {"type": "DT_FLOAT"}}}, {"name": "StatefulPartitionedCall/model/bert/encoder/layer_0/intermediate/Tensordot/Shape", "op": "Shape", "input": ["StatefulPartitionedCall/model/bert/encoder/layer_0/attention/output/LayerNorm/add_1"], "attr": {"out_type": {"type": "DT_INT32"}, "T": {"type": "DT_FLOAT"}}}, {"name": "StatefulPartitionedCall/model/bert/encoder/layer_0/intermediate/Tensordot/GatherV2_1", "op": "GatherV2", "input": ["StatefulPartitionedCall/model/bert/encoder/layer_0/intermediate/Tensordot/Shape", "StatefulPartitionedCall/model/bert/encoder/layer_0/intermediate/Tensordot/axes", "StatefulPartitionedCall/model/bert/encoder/layer_0/intermediate/Tensordot/GatherV2_1/axis"], "attr": {"Taxis": {"type": "DT_INT32"}, "batch_dims": {"i": "0"}, "Tindices": {"type": "DT_INT32"}, "Tparams": {"type": "DT_INT32"}}}, {"name": "StatefulPartitionedCall/model/bert/encoder/layer_0/intermediate/Tensordot/GatherV2", "op": "GatherV2", "input": ["StatefulPartitionedCall/model/bert/encoder/layer_0/intermediate/Tensordot/Shape", "StatefulPartitionedCall/model/bert/encoder/layer_0/intermediate/Tensordot/free", "StatefulPartitionedCall/model/bert/encoder/layer_0/intermediate/Tensordot/GatherV2/axis"], "attr": {"batch_dims": {"i": "0"}, "Tindices": {"type": "DT_INT32"}, "Tparams": {"type": "DT_INT32"}, "Taxis": {"type": "DT_INT32"}}}, {"name": "StatefulPartitionedCall/model/bert/encoder/layer_0/intermediate/Tensordot/Prod_1", "op": "Prod", "input": ["StatefulPartitionedCall/model/bert/encoder/layer_0/intermediate/Tensordot/GatherV2_1", "StatefulPartitionedCall/model/bert/encoder/layer_0/intermediate/Tensordot/Const_1"], "attr": {"T": {"type": "DT_INT32"}, "keep_dims": {"b": false}, "Tidx": {"type": "DT_INT32"}}}, {"name": "StatefulPartitionedCall/model/bert/encoder/layer_0/intermediate/Tensordot/Prod", "op": "Prod", "input": ["StatefulPartitionedCall/model/bert/encoder/layer_0/intermediate/Tensordot/GatherV2", "StatefulPartitionedCall/model/bert/encoder/layer_0/intermediate/Tensordot/Const"], "attr": {"keep_dims": {"b": false}, "Tidx": {"type": "DT_INT32"}, "T": {"type": "DT_INT32"}}}, {"name": "StatefulPartitionedCall/model/bert/encoder/layer_0/intermediate/Tensordot/concat_1", "op": "ConcatV2", "input": ["StatefulPartitionedCall/model/bert/encoder/layer_0/intermediate/Tensordot/GatherV2", "StatefulPartitionedCall/model/bert/encoder/layer_0/intermediate/Tensordot/Const_2", "StatefulPartitionedCall/model/bert/encoder/layer_0/intermediate/Tensordot/concat_1/axis"], "attr": {"T": {"type": "DT_INT32"}, "N": {"i": "2"}, "Tidx": {"type": "DT_INT32"}}}, {"name": "StatefulPartitionedCall/model/bert/encoder/layer_0/intermediate/Tensordot/stack", "op": "Pack", "input": ["StatefulPartitionedCall/model/bert/encoder/layer_0/intermediate/Tensordot/Prod", "StatefulPartitionedCall/model/bert/encoder/layer_0/intermediate/Tensordot/Prod_1"], "attr": {"T": {"type": "DT_INT32"}, "axis": {"i": "0"}, "N": {"i": "2"}}}, {"name": "StatefulPartitionedCall/model/bert/encoder/layer_0/intermediate/Tensordot/Reshape", "op": "Reshape", "input": ["StatefulPartitionedCall/model/bert/encoder/layer_0/attention/output/LayerNorm/add_1", "StatefulPartitionedCall/model/bert/encoder/layer_0/intermediate/Tensordot/stack"], "attr": {"T": {"type": "DT_FLOAT"}, "Tshape": {"type": "DT_INT32"}}}, {"name": "StatefulPartitionedCall/model/bert/encoder/layer_0/intermediate/Tensordot/MatMul", "op": "MatMul", "input": ["StatefulPartitionedCall/model/bert/encoder/layer_0/intermediate/Tensordot/Reshape", "StatefulPartitionedCall/model/bert/encoder/layer_0/intermediate/Tensordot/ReadVariableOp"], "device": "/device:CPU:0", "attr": {"T": {"type": "DT_FLOAT"}, "transpose_a": {"b": false}, "transpose_b": {"b": false}}}, {"name": "StatefulPartitionedCall/model/bert/encoder/layer_0/intermediate/Tensordot", "op": "Reshape", "input": ["StatefulPartitionedCall/model/bert/encoder/layer_0/intermediate/Tensordot/MatMul", "StatefulPartitionedCall/model/bert/encoder/layer_0/intermediate/Tensordot/concat_1"], "attr": {"T": {"type": "DT_FLOAT"}, "Tshape": {"type": "DT_INT32"}}}, {"name": "StatefulPartitionedCall/model/bert/encoder/layer_0/intermediate/BiasAdd", "op": "BiasAdd", "input": ["StatefulPartitionedCall/model/bert/encoder/layer_0/intermediate/Tensordot", "StatefulPartitionedCall/model/bert/encoder/layer_0/intermediate/BiasAdd/ReadVariableOp"], "attr": {"T": {"type": "DT_FLOAT"}, "data_format": {"s": "TkhXQw=="}}}, {"name": "StatefulPartitionedCall/model/bert/encoder/layer_0/intermediate/mul_2", "op": "Mul", "input": ["StatefulPartitionedCall/model/bert/encoder/layer_0/intermediate/mul_2/x", "StatefulPartitionedCall/model/bert/encoder/layer_0/intermediate/BiasAdd"], "attr": {"_grappler_ArithmeticOptimizer_MinimizeBroadcasts": {"b": true}, "T": {"type": "DT_FLOAT"}}}, {"name": "StatefulPartitionedCall/model/bert/encoder/layer_0/intermediate/Pow", "op": "Pow", "input": ["StatefulPartitionedCall/model/bert/encoder/layer_0/intermediate/BiasAdd", "StatefulPartitionedCall/model/bert/encoder/layer_0/intermediate/Pow/y"], "attr": {"T": {"type": "DT_FLOAT"}}}, {"name": "StatefulPartitionedCall/model/bert/encoder/layer_0/intermediate/mul", "op": "Mul", "input": ["StatefulPartitionedCall/model/bert/encoder/layer_0/intermediate/mul/x", "StatefulPartitionedCall/model/bert/encoder/layer_0/intermediate/Pow"], "attr": {"T": {"type": "DT_FLOAT"}}}, {"name": "StatefulPartitionedCall/model/bert/encoder/layer_0/intermediate/add", "op": "AddV2", "input": ["StatefulPartitionedCall/model/bert/encoder/layer_0/intermediate/BiasAdd", "StatefulPartitionedCall/model/bert/encoder/layer_0/intermediate/mul"], "attr": {"T": {"type": "DT_FLOAT"}}}, {"name": "StatefulPartitionedCall/model/bert/encoder/layer_0/intermediate/mul_1", "op": "Mul", "input": ["StatefulPartitionedCall/model/bert/encoder/layer_0/intermediate/mul_1/x", "StatefulPartitionedCall/model/bert/encoder/layer_0/intermediate/add"], "attr": {"T": {"type": "DT_FLOAT"}}}, {"name": "StatefulPartitionedCall/model/bert/encoder/layer_0/intermediate/Tanh", "op": "Tanh", "input": ["StatefulPartitionedCall/model/bert/encoder/layer_0/intermediate/mul_1"], "attr": {"T": {"type": "DT_FLOAT"}}}, {"name": "StatefulPartitionedCall/model/bert/encoder/layer_0/intermediate/add_1", "op": "AddV2", "input": ["StatefulPartitionedCall/model/bert/encoder/layer_0/intermediate/add_1/x", "StatefulPartitionedCall/model/bert/encoder/layer_0/intermediate/Tanh"], "attr": {"T": {"type": "DT_FLOAT"}}}, {"name": "StatefulPartitionedCall/model/bert/encoder/layer_0/intermediate/mul_3", "op": "Mul", "input": ["StatefulPartitionedCall/model/bert/encoder/layer_0/intermediate/mul_2", "StatefulPartitionedCall/model/bert/encoder/layer_0/intermediate/add_1"], "attr": {"_grappler_ArithmeticOptimizer_MinimizeBroadcasts": {"b": true}, "T": {"type": "DT_FLOAT"}}}, {"name": "StatefulPartitionedCall/model/bert/encoder/layer_0/output/dense/Tensordot/Shape", "op": "Shape", "input": ["StatefulPartitionedCall/model/bert/encoder/layer_0/intermediate/mul_3"], "attr": {"T": {"type": "DT_FLOAT"}, "out_type": {"type": "DT_INT32"}}}, {"name": "StatefulPartitionedCall/model/bert/encoder/layer_0/output/dense/Tensordot/GatherV2_1", "op": "GatherV2", "input": ["StatefulPartitionedCall/model/bert/encoder/layer_0/output/dense/Tensordot/Shape", "StatefulPartitionedCall/model/bert/encoder/layer_0/output/dense/Tensordot/axes", "StatefulPartitionedCall/model/bert/encoder/layer_0/output/dense/Tensordot/GatherV2_1/axis"], "attr": {"Taxis": {"type": "DT_INT32"}, "batch_dims": {"i": "0"}, "Tindices": {"type": "DT_INT32"}, "Tparams": {"type": "DT_INT32"}}}, {"name": "StatefulPartitionedCall/model/bert/encoder/layer_0/output/dense/Tensordot/GatherV2", "op": "GatherV2", "input": ["StatefulPartitionedCall/model/bert/encoder/layer_0/output/dense/Tensordot/Shape", "StatefulPartitionedCall/model/bert/encoder/layer_0/output/dense/Tensordot/free", "StatefulPartitionedCall/model/bert/encoder/layer_0/output/dense/Tensordot/GatherV2/axis"], "attr": {"Tindices": {"type": "DT_INT32"}, "Tparams": {"type": "DT_INT32"}, "Taxis": {"type": "DT_INT32"}, "batch_dims": {"i": "0"}}}, {"name": "StatefulPartitionedCall/model/bert/encoder/layer_0/output/dense/Tensordot/Prod_1", "op": "Prod", "input": ["StatefulPartitionedCall/model/bert/encoder/layer_0/output/dense/Tensordot/GatherV2_1", "StatefulPartitionedCall/model/bert/encoder/layer_0/output/dense/Tensordot/Const_1"], "attr": {"keep_dims": {"b": false}, "Tidx": {"type": "DT_INT32"}, "T": {"type": "DT_INT32"}}}, {"name": "StatefulPartitionedCall/model/bert/encoder/layer_0/output/dense/Tensordot/Prod", "op": "Prod", "input": ["StatefulPartitionedCall/model/bert/encoder/layer_0/output/dense/Tensordot/GatherV2", "StatefulPartitionedCall/model/bert/encoder/layer_0/output/dense/Tensordot/Const"], "attr": {"T": {"type": "DT_INT32"}, "keep_dims": {"b": false}, "Tidx": {"type": "DT_INT32"}}}, {"name": "StatefulPartitionedCall/model/bert/encoder/layer_0/output/dense/Tensordot/concat_1", "op": "ConcatV2", "input": ["StatefulPartitionedCall/model/bert/encoder/layer_0/output/dense/Tensordot/GatherV2", "StatefulPartitionedCall/model/bert/encoder/layer_0/output/dense/Tensordot/Const_2", "StatefulPartitionedCall/model/bert/encoder/layer_0/output/dense/Tensordot/concat_1/axis"], "attr": {"N": {"i": "2"}, "Tidx": {"type": "DT_INT32"}, "T": {"type": "DT_INT32"}}}, {"name": "StatefulPartitionedCall/model/bert/encoder/layer_0/output/dense/Tensordot/stack", "op": "Pack", "input": ["StatefulPartitionedCall/model/bert/encoder/layer_0/output/dense/Tensordot/Prod", "StatefulPartitionedCall/model/bert/encoder/layer_0/output/dense/Tensordot/Prod_1"], "attr": {"axis": {"i": "0"}, "N": {"i": "2"}, "T": {"type": "DT_INT32"}}}, {"name": "StatefulPartitionedCall/model/bert/encoder/layer_0/output/dense/Tensordot/Reshape", "op": "Reshape", "input": ["StatefulPartitionedCall/model/bert/encoder/layer_0/intermediate/mul_3", "StatefulPartitionedCall/model/bert/encoder/layer_0/output/dense/Tensordot/stack"], "attr": {"T": {"type": "DT_FLOAT"}, "Tshape": {"type": "DT_INT32"}}}, {"name": "StatefulPartitionedCall/model/bert/encoder/layer_0/output/dense/Tensordot/MatMul", "op": "MatMul", "input": ["StatefulPartitionedCall/model/bert/encoder/layer_0/output/dense/Tensordot/Reshape", "StatefulPartitionedCall/model/bert/encoder/layer_0/output/dense/Tensordot/ReadVariableOp"], "device": "/device:CPU:0", "attr": {"transpose_a": {"b": false}, "transpose_b": {"b": false}, "T": {"type": "DT_FLOAT"}}}, {"name": "StatefulPartitionedCall/model/bert/encoder/layer_0/output/dense/Tensordot", "op": "Reshape", "input": ["StatefulPartitionedCall/model/bert/encoder/layer_0/output/dense/Tensordot/MatMul", "StatefulPartitionedCall/model/bert/encoder/layer_0/output/dense/Tensordot/concat_1"], "attr": {"T": {"type": "DT_FLOAT"}, "Tshape": {"type": "DT_INT32"}}}, {"name": "StatefulPartitionedCall/model/bert/encoder/layer_0/output/dense/BiasAdd", "op": "BiasAdd", "input": ["StatefulPartitionedCall/model/bert/encoder/layer_0/output/dense/Tensordot", "StatefulPartitionedCall/model/bert/encoder/layer_0/output/dense/BiasAdd/ReadVariableOp"], "attr": {"T": {"type": "DT_FLOAT"}, "data_format": {"s": "TkhXQw=="}}}, {"name": "StatefulPartitionedCall/model/bert/encoder/layer_0/output/Add", "op": "Add", "input": ["StatefulPartitionedCall/model/bert/encoder/layer_0/output/dense/BiasAdd", "StatefulPartitionedCall/model/bert/encoder/layer_0/attention/output/LayerNorm/add_1"], "attr": {"T": {"type": "DT_FLOAT"}}}, {"name": "StatefulPartitionedCall/model/bert/encoder/layer_0/output/LayerNorm/moments/mean", "op": "Mean", "input": ["StatefulPartitionedCall/model/bert/encoder/layer_0/output/Add", "StatefulPartitionedCall/model/bert/encoder/layer_0/output/LayerNorm/moments/mean/reduction_indices"], "attr": {"T": {"type": "DT_FLOAT"}, "keep_dims": {"b": true}, "Tidx": {"type": "DT_INT32"}}}, {"name": "StatefulPartitionedCall/model/bert/encoder/layer_0/output/LayerNorm/moments/SquaredDifference", "op": "SquaredDifference", "input": ["StatefulPartitionedCall/model/bert/encoder/layer_0/output/Add", "StatefulPartitionedCall/model/bert/encoder/layer_0/output/LayerNorm/moments/mean"], "attr": {"T": {"type": "DT_FLOAT"}}}, {"name": "StatefulPartitionedCall/model/bert/encoder/layer_0/output/LayerNorm/moments/variance", "op": "Mean", "input": ["StatefulPartitionedCall/model/bert/encoder/layer_0/output/LayerNorm/moments/SquaredDifference", "StatefulPartitionedCall/model/bert/encoder/layer_0/output/LayerNorm/moments/variance/reduction_indices"], "attr": {"T": {"type": "DT_FLOAT"}, "keep_dims": {"b": true}, "Tidx": {"type": "DT_INT32"}}}, {"name": "StatefulPartitionedCall/model/bert/encoder/layer_0/output/LayerNorm/add", "op": "AddV2", "input": ["StatefulPartitionedCall/model/bert/encoder/layer_0/output/LayerNorm/moments/variance", "StatefulPartitionedCall/model/bert/encoder/layer_0/output/LayerNorm/add/y"], "attr": {"T": {"type": "DT_FLOAT"}}}, {"name": "StatefulPartitionedCall/model/bert/encoder/layer_0/output/LayerNorm/Rsqrt", "op": "Rsqrt", "input": ["StatefulPartitionedCall/model/bert/encoder/layer_0/output/LayerNorm/add"], "attr": {"T": {"type": "DT_FLOAT"}}}, {"name": "StatefulPartitionedCall/model/bert/encoder/layer_0/output/LayerNorm/mul", "op": "Mul", "input": ["StatefulPartitionedCall/model/bert/encoder/layer_0/output/LayerNorm/ReadVariableOp", "StatefulPartitionedCall/model/bert/encoder/layer_0/output/LayerNorm/Rsqrt"], "attr": {"T": {"type": "DT_FLOAT"}}}, {"name": "StatefulPartitionedCall/model/bert/encoder/layer_0/output/LayerNorm/mul_2", "op": "Mul", "input": ["StatefulPartitionedCall/model/bert/encoder/layer_0/output/LayerNorm/moments/mean", "StatefulPartitionedCall/model/bert/encoder/layer_0/output/LayerNorm/mul"], "attr": {"T": {"type": "DT_FLOAT"}}}, {"name": "StatefulPartitionedCall/model/bert/encoder/layer_0/output/LayerNorm/mul_1", "op": "Mul", "input": ["StatefulPartitionedCall/model/bert/encoder/layer_0/output/Add", "StatefulPartitionedCall/model/bert/encoder/layer_0/output/LayerNorm/mul"], "attr": {"T": {"type": "DT_FLOAT"}}}, {"name": "StatefulPartitionedCall/model/bert/encoder/layer_0/output/LayerNorm/sub", "op": "Sub", "input": ["StatefulPartitionedCall/model/bert/encoder/layer_0/output/LayerNorm/ReadVariableOp_1", "StatefulPartitionedCall/model/bert/encoder/layer_0/output/LayerNorm/mul_2"], "attr": {"T": {"type": "DT_FLOAT"}}}, {"name": "StatefulPartitionedCall/model/bert/encoder/layer_0/output/LayerNorm/add_1", "op": "AddV2", "input": ["StatefulPartitionedCall/model/bert/encoder/layer_0/output/LayerNorm/mul_1", "StatefulPartitionedCall/model/bert/encoder/layer_0/output/LayerNorm/sub"], "attr": {"T": {"type": "DT_FLOAT"}}}, {"name": "StatefulPartitionedCall/model/bert/encoder/layer_1/attention/self/query/Tensordot/Shape", "op": "Shape", "input": ["StatefulPartitionedCall/model/bert/encoder/layer_0/output/LayerNorm/add_1"], "attr": {"T": {"type": "DT_FLOAT"}, "out_type": {"type": "DT_INT32"}}}, {"name": "StatefulPartitionedCall/model/bert/encoder/layer_1/attention/self/key/Tensordot/Shape", "op": "Shape", "input": ["StatefulPartitionedCall/model/bert/encoder/layer_0/output/LayerNorm/add_1"], "attr": {"T": {"type": "DT_FLOAT"}, "out_type": {"type": "DT_INT32"}}}, {"name": "StatefulPartitionedCall/model/bert/encoder/layer_1/attention/self/Shape_1", "op": "Shape", "input": ["StatefulPartitionedCall/model/bert/encoder/layer_0/output/LayerNorm/add_1"], "attr": {"out_type": {"type": "DT_INT32"}, "T": {"type": "DT_FLOAT"}}}, {"name": "StatefulPartitionedCall/model/bert/encoder/layer_1/attention/self/Shape", "op": "Shape", "input": ["StatefulPartitionedCall/model/bert/encoder/layer_0/output/LayerNorm/add_1"], "attr": {"T": {"type": "DT_FLOAT"}, "out_type": {"type": "DT_INT32"}}}, {"name": "StatefulPartitionedCall/model/bert/encoder/layer_1/attention/self/value/Tensordot/Shape", "op": "Shape", "input": ["StatefulPartitionedCall/model/bert/encoder/layer_0/output/LayerNorm/add_1"], "attr": {"T": {"type": "DT_FLOAT"}, "out_type": {"type": "DT_INT32"}}}, {"name": "StatefulPartitionedCall/model/bert/encoder/layer_1/attention/self/Shape_2", "op": "Shape", "input": ["StatefulPartitionedCall/model/bert/encoder/layer_0/output/LayerNorm/add_1"], "attr": {"T": {"type": "DT_FLOAT"}, "out_type": {"type": "DT_INT32"}}}, {"name": "StatefulPartitionedCall/model/bert/encoder/layer_1/attention/self/query/Tensordot/GatherV2_1", "op": "GatherV2", "input": ["StatefulPartitionedCall/model/bert/encoder/layer_1/attention/self/query/Tensordot/Shape", "StatefulPartitionedCall/model/bert/encoder/layer_1/attention/self/query/Tensordot/axes", "StatefulPartitionedCall/model/bert/encoder/layer_1/attention/self/query/Tensordot/GatherV2_1/axis"], "attr": {"Taxis": {"type": "DT_INT32"}, "batch_dims": {"i": "0"}, "Tindices": {"type": "DT_INT32"}, "Tparams": {"type": "DT_INT32"}}}, {"name": "StatefulPartitionedCall/model/bert/encoder/layer_1/attention/self/query/Tensordot/GatherV2", "op": "GatherV2", "input": ["StatefulPartitionedCall/model/bert/encoder/layer_1/attention/self/query/Tensordot/Shape", "StatefulPartitionedCall/model/bert/encoder/layer_1/attention/self/query/Tensordot/free", "StatefulPartitionedCall/model/bert/encoder/layer_1/attention/self/query/Tensordot/GatherV2/axis"], "attr": {"Taxis": {"type": "DT_INT32"}, "batch_dims": {"i": "0"}, "Tindices": {"type": "DT_INT32"}, "Tparams": {"type": "DT_INT32"}}}, {"name": "StatefulPartitionedCall/model/bert/encoder/layer_1/attention/self/key/Tensordot/GatherV2_1", "op": "GatherV2", "input": ["StatefulPartitionedCall/model/bert/encoder/layer_1/attention/self/key/Tensordot/Shape", "StatefulPartitionedCall/model/bert/encoder/layer_1/attention/self/key/Tensordot/axes", "StatefulPartitionedCall/model/bert/encoder/layer_1/attention/self/key/Tensordot/GatherV2_1/axis"], "attr": {"batch_dims": {"i": "0"}, "Tindices": {"type": "DT_INT32"}, "Tparams": {"type": "DT_INT32"}, "Taxis": {"type": "DT_INT32"}}}, {"name": "StatefulPartitionedCall/model/bert/encoder/layer_1/attention/self/key/Tensordot/GatherV2", "op": "GatherV2", "input": ["StatefulPartitionedCall/model/bert/encoder/layer_1/attention/self/key/Tensordot/Shape", "StatefulPartitionedCall/model/bert/encoder/layer_1/attention/self/key/Tensordot/free", "StatefulPartitionedCall/model/bert/encoder/layer_1/attention/self/key/Tensordot/GatherV2/axis"], "attr": {"batch_dims": {"i": "0"}, "Tindices": {"type": "DT_INT32"}, "Tparams": {"type": "DT_INT32"}, "Taxis": {"type": "DT_INT32"}}}, {"name": "StatefulPartitionedCall/model/bert/encoder/layer_1/attention/self/strided_slice_1", "op": "StridedSlice", "input": ["StatefulPartitionedCall/model/bert/encoder/layer_1/attention/self/Shape_1", "StatefulPartitionedCall/model/bert/encoder/layer_1/attention/self/strided_slice_1/stack", "StatefulPartitionedCall/model/bert/encoder/layer_1/attention/self/strided_slice_1/stack_1", "StatefulPartitionedCall/model/bert/encoder/layer_1/attention/self/strided_slice_1/stack_2"], "attr": {"ellipsis_mask": {"i": "0"}, "begin_mask": {"i": "1"}, "new_axis_mask": {"i": "0"}, "end_mask": {"i": "0"}, "T": {"type": "DT_INT32"}, "Index": {"type": "DT_INT32"}, "shrink_axis_mask": {"i": "0"}}}, {"name": "StatefulPartitionedCall/model/bert/encoder/layer_1/attention/self/strided_slice", "op": "StridedSlice", "input": ["StatefulPartitionedCall/model/bert/encoder/layer_1/attention/self/Shape", "StatefulPartitionedCall/model/bert/encoder/layer_1/attention/self/strided_slice/stack", "StatefulPartitionedCall/model/bert/encoder/layer_1/attention/self/strided_slice/stack_1", "StatefulPartitionedCall/model/bert/encoder/layer_1/attention/self/strided_slice/stack_2"], "attr": {"shrink_axis_mask": {"i": "1"}, "begin_mask": {"i": "0"}, "ellipsis_mask": {"i": "0"}, "new_axis_mask": {"i": "0"}, "end_mask": {"i": "0"}, "T": {"type": "DT_INT32"}, "Index": {"type": "DT_INT32"}}}, {"name": "StatefulPartitionedCall/model/bert/encoder/layer_1/attention/self/value/Tensordot/GatherV2_1", "op": "GatherV2", "input": ["StatefulPartitionedCall/model/bert/encoder/layer_1/attention/self/value/Tensordot/Shape", "StatefulPartitionedCall/model/bert/encoder/layer_1/attention/self/value/Tensordot/axes", "StatefulPartitionedCall/model/bert/encoder/layer_1/attention/self/value/Tensordot/GatherV2_1/axis"], "attr": {"Taxis": {"type": "DT_INT32"}, "batch_dims": {"i": "0"}, "Tindices": {"type": "DT_INT32"}, "Tparams": {"type": "DT_INT32"}}}, {"name": "StatefulPartitionedCall/model/bert/encoder/layer_1/attention/self/value/Tensordot/GatherV2", "op": "GatherV2", "input": ["StatefulPartitionedCall/model/bert/encoder/layer_1/attention/self/value/Tensordot/Shape", "StatefulPartitionedCall/model/bert/encoder/layer_1/attention/self/value/Tensordot/free", "StatefulPartitionedCall/model/bert/encoder/layer_1/attention/self/value/Tensordot/GatherV2/axis"], "attr": {"Taxis": {"type": "DT_INT32"}, "batch_dims": {"i": "0"}, "Tindices": {"type": "DT_INT32"}, "Tparams": {"type": "DT_INT32"}}}, {"name": "StatefulPartitionedCall/model/bert/encoder/layer_1/attention/self/strided_slice_2", "op": "StridedSlice", "input": ["StatefulPartitionedCall/model/bert/encoder/layer_1/attention/self/Shape_2", "StatefulPartitionedCall/model/bert/encoder/layer_1/attention/self/strided_slice_2/stack", "StatefulPartitionedCall/model/bert/encoder/layer_1/attention/self/strided_slice_2/stack_1", "StatefulPartitionedCall/model/bert/encoder/layer_1/attention/self/strided_slice_2/stack_2"], "attr": {"ellipsis_mask": {"i": "0"}, "begin_mask": {"i": "0"}, "new_axis_mask": {"i": "0"}, "end_mask": {"i": "0"}, "T": {"type": "DT_INT32"}, "Index": {"type": "DT_INT32"}, "shrink_axis_mask": {"i": "1"}}}, {"name": "StatefulPartitionedCall/model/bert/encoder/layer_1/attention/self/strided_slice_3", "op": "StridedSlice", "input": ["StatefulPartitionedCall/model/bert/encoder/layer_1/attention/self/Shape_2", "StatefulPartitionedCall/model/bert/encoder/layer_1/attention/self/strided_slice_3/stack", "StatefulPartitionedCall/model/bert/encoder/layer_1/attention/self/strided_slice_3/stack_1", "StatefulPartitionedCall/model/bert/encoder/layer_1/attention/self/strided_slice_3/stack_2"], "attr": {"T": {"type": "DT_INT32"}, "Index": {"type": "DT_INT32"}, "shrink_axis_mask": {"i": "1"}, "begin_mask": {"i": "0"}, "ellipsis_mask": {"i": "0"}, "new_axis_mask": {"i": "0"}, "end_mask": {"i": "0"}}}, {"name": "StatefulPartitionedCall/model/bert/encoder/layer_1/attention/self/query/Tensordot/Prod_1", "op": "Prod", "input": ["StatefulPartitionedCall/model/bert/encoder/layer_1/attention/self/query/Tensordot/GatherV2_1", "StatefulPartitionedCall/model/bert/encoder/layer_1/attention/self/query/Tensordot/Const_1"], "attr": {"keep_dims": {"b": false}, "Tidx": {"type": "DT_INT32"}, "T": {"type": "DT_INT32"}}}, {"name": "StatefulPartitionedCall/model/bert/encoder/layer_1/attention/self/query/Tensordot/Prod", "op": "Prod", "input": ["StatefulPartitionedCall/model/bert/encoder/layer_1/attention/self/query/Tensordot/GatherV2", "StatefulPartitionedCall/model/bert/encoder/layer_1/attention/self/query/Tensordot/Const"], "attr": {"keep_dims": {"b": false}, "Tidx": {"type": "DT_INT32"}, "T": {"type": "DT_INT32"}}}, {"name": "StatefulPartitionedCall/model/bert/encoder/layer_1/attention/self/query/Tensordot/concat_1", "op": "ConcatV2", "input": ["StatefulPartitionedCall/model/bert/encoder/layer_1/attention/self/query/Tensordot/GatherV2", "StatefulPartitionedCall/model/bert/encoder/layer_1/attention/self/query/Tensordot/Const_2", "StatefulPartitionedCall/model/bert/encoder/layer_1/attention/self/query/Tensordot/concat_1/axis"], "attr": {"T": {"type": "DT_INT32"}, "N": {"i": "2"}, "Tidx": {"type": "DT_INT32"}}}, {"name": "StatefulPartitionedCall/model/bert/encoder/layer_1/attention/self/key/Tensordot/Prod_1", "op": "Prod", "input": ["StatefulPartitionedCall/model/bert/encoder/layer_1/attention/self/key/Tensordot/GatherV2_1", "StatefulPartitionedCall/model/bert/encoder/layer_1/attention/self/key/Tensordot/Const_1"], "attr": {"keep_dims": {"b": false}, "Tidx": {"type": "DT_INT32"}, "T": {"type": "DT_INT32"}}}, {"name": "StatefulPartitionedCall/model/bert/encoder/layer_1/attention/self/key/Tensordot/Prod", "op": "Prod", "input": ["StatefulPartitionedCall/model/bert/encoder/layer_1/attention/self/key/Tensordot/GatherV2", "StatefulPartitionedCall/model/bert/encoder/layer_1/attention/self/key/Tensordot/Const"], "attr": {"keep_dims": {"b": false}, "Tidx": {"type": "DT_INT32"}, "T": {"type": "DT_INT32"}}}, {"name": "StatefulPartitionedCall/model/bert/encoder/layer_1/attention/self/key/Tensordot/concat_1", "op": "ConcatV2", "input": ["StatefulPartitionedCall/model/bert/encoder/layer_1/attention/self/key/Tensordot/GatherV2", "StatefulPartitionedCall/model/bert/encoder/layer_1/attention/self/key/Tensordot/Const_2", "StatefulPartitionedCall/model/bert/encoder/layer_1/attention/self/key/Tensordot/concat_1/axis"], "attr": {"Tidx": {"type": "DT_INT32"}, "T": {"type": "DT_INT32"}, "N": {"i": "2"}}}, {"name": "StatefulPartitionedCall/model/bert/encoder/layer_1/attention/self/ones_1", "op": "Fill", "input": ["StatefulPartitionedCall/model/bert/encoder/layer_1/attention/self/strided_slice_1", "StatefulPartitionedCall/model/bert/encoder/layer_1/attention/self/ones_1/Const"], "attr": {"T": {"type": "DT_FLOAT"}, "index_type": {"type": "DT_INT32"}}}, {"name": "StatefulPartitionedCall/model/bert/encoder/layer_1/attention/self/ones/packed", "op": "Pack", "input": ["StatefulPartitionedCall/model/bert/encoder/layer_1/attention/self/strided_slice", "StatefulPartitionedCall/model/bert/encoder/layer_1/attention/self/ones/packed/1"], "attr": {"T": {"type": "DT_INT32"}, "axis": {"i": "0"}, "N": {"i": "2"}}}, {"name": "StatefulPartitionedCall/model/bert/encoder/layer_1/attention/self/value/Tensordot/Prod_1", "op": "Prod", "input": ["StatefulPartitionedCall/model/bert/encoder/layer_1/attention/self/value/Tensordot/GatherV2_1", "StatefulPartitionedCall/model/bert/encoder/layer_1/attention/self/value/Tensordot/Const_1"], "attr": {"keep_dims": {"b": false}, "Tidx": {"type": "DT_INT32"}, "T": {"type": "DT_INT32"}}}, {"name": "StatefulPartitionedCall/model/bert/encoder/layer_1/attention/self/value/Tensordot/Prod", "op": "Prod", "input": ["StatefulPartitionedCall/model/bert/encoder/layer_1/attention/self/value/Tensordot/GatherV2", "StatefulPartitionedCall/model/bert/encoder/layer_1/attention/self/value/Tensordot/Const"], "attr": {"keep_dims": {"b": false}, "Tidx": {"type": "DT_INT32"}, "T": {"type": "DT_INT32"}}}, {"name": "StatefulPartitionedCall/model/bert/encoder/layer_1/attention/self/value/Tensordot/concat_1", "op": "ConcatV2", "input": ["StatefulPartitionedCall/model/bert/encoder/layer_1/attention/self/value/Tensordot/GatherV2", "StatefulPartitionedCall/model/bert/encoder/layer_1/attention/self/value/Tensordot/Const_2", "StatefulPartitionedCall/model/bert/encoder/layer_1/attention/self/value/Tensordot/concat_1/axis"], "attr": {"Tidx": {"type": "DT_INT32"}, "T": {"type": "DT_INT32"}, "N": {"i": "2"}}}, {"name": "StatefulPartitionedCall/model/bert/encoder/layer_1/attention/self/Reshape/shape", "op": "Pack", "input": ["StatefulPartitionedCall/model/bert/encoder/layer_1/attention/self/strided_slice_2", "StatefulPartitionedCall/model/bert/encoder/layer_1/attention/self/strided_slice_3", "StatefulPartitionedCall/model/bert/encoder/layer_1/attention/self/Reshape/shape/2", "StatefulPartitionedCall/model/bert/encoder/layer_1/attention/self/Reshape/shape/3"], "attr": {"axis": {"i": "0"}, "N": {"i": "4"}, "T": {"type": "DT_INT32"}}}, {"name": "StatefulPartitionedCall/model/bert/encoder/layer_1/attention/self/Reshape_1/shape", "op": "Pack", "input": ["StatefulPartitionedCall/model/bert/encoder/layer_1/attention/self/strided_slice_2", "StatefulPartitionedCall/model/bert/encoder/layer_1/attention/self/strided_slice_3", "StatefulPartitionedCall/model/bert/encoder/layer_1/attention/self/Reshape_1/shape/2", "StatefulPartitionedCall/model/bert/encoder/layer_1/attention/self/Reshape_1/shape/3"], "attr": {"T": {"type": "DT_INT32"}, "axis": {"i": "0"}, "N": {"i": "4"}}}, {"name": "StatefulPartitionedCall/model/bert/encoder/layer_1/attention/self/Reshape_2/shape", "op": "Pack", "input": ["StatefulPartitionedCall/model/bert/encoder/layer_1/attention/self/strided_slice_2", "StatefulPartitionedCall/model/bert/encoder/layer_1/attention/self/strided_slice_3", "StatefulPartitionedCall/model/bert/encoder/layer_1/attention/self/Reshape_2/shape/2", "StatefulPartitionedCall/model/bert/encoder/layer_1/attention/self/Reshape_2/shape/3"], "attr": {"T": {"type": "DT_INT32"}, "axis": {"i": "0"}, "N": {"i": "4"}}}, {"name": "StatefulPartitionedCall/model/bert/encoder/layer_1/attention/self/Reshape_3/shape", "op": "Pack", "input": ["StatefulPartitionedCall/model/bert/encoder/layer_1/attention/self/strided_slice_2", "StatefulPartitionedCall/model/bert/encoder/layer_1/attention/self/strided_slice_3", "StatefulPartitionedCall/model/bert/encoder/layer_1/attention/self/Reshape_3/shape/2"], "attr": {"T": {"type": "DT_INT32"}, "axis": {"i": "0"}, "N": {"i": "3"}}}, {"name": "StatefulPartitionedCall/model/bert/encoder/layer_1/attention/self/query/Tensordot/stack", "op": "Pack", "input": ["StatefulPartitionedCall/model/bert/encoder/layer_1/attention/self/query/Tensordot/Prod", "StatefulPartitionedCall/model/bert/encoder/layer_1/attention/self/query/Tensordot/Prod_1"], "attr": {"N": {"i": "2"}, "T": {"type": "DT_INT32"}, "axis": {"i": "0"}}}, {"name": "StatefulPartitionedCall/model/bert/encoder/layer_1/attention/self/key/Tensordot/stack", "op": "Pack", "input": ["StatefulPartitionedCall/model/bert/encoder/layer_1/attention/self/key/Tensordot/Prod", "StatefulPartitionedCall/model/bert/encoder/layer_1/attention/self/key/Tensordot/Prod_1"], "attr": {"N": {"i": "2"}, "T": {"type": "DT_INT32"}, "axis": {"i": "0"}}}, {"name": "StatefulPartitionedCall/model/bert/encoder/layer_1/attention/self/ExpandDims_1", "op": "ExpandDims", "input": ["StatefulPartitionedCall/model/bert/encoder/layer_1/attention/self/ones_1", "StatefulPartitionedCall/model/bert/encoder/layer_1/attention/self/ExpandDims_1/dim"], "attr": {"Tdim": {"type": "DT_INT32"}, "T": {"type": "DT_FLOAT"}}}, {"name": "StatefulPartitionedCall/model/bert/encoder/layer_1/attention/self/ones", "op": "Fill", "input": ["StatefulPartitionedCall/model/bert/encoder/layer_1/attention/self/ones/packed", "StatefulPartitionedCall/model/bert/encoder/layer_1/attention/self/ones/Const"], "attr": {"T": {"type": "DT_INT32"}, "index_type": {"type": "DT_INT32"}}}, {"name": "StatefulPartitionedCall/model/bert/encoder/layer_1/attention/self/value/Tensordot/stack", "op": "Pack", "input": ["StatefulPartitionedCall/model/bert/encoder/layer_1/attention/self/value/Tensordot/Prod", "StatefulPartitionedCall/model/bert/encoder/layer_1/attention/self/value/Tensordot/Prod_1"], "attr": {"T": {"type": "DT_INT32"}, "axis": {"i": "0"}, "N": {"i": "2"}}}, {"name": "StatefulPartitionedCall/model/bert/encoder/layer_1/attention/self/query/Tensordot/Reshape", "op": "Reshape", "input": ["StatefulPartitionedCall/model/bert/encoder/layer_0/output/LayerNorm/add_1", "StatefulPartitionedCall/model/bert/encoder/layer_1/attention/self/query/Tensordot/stack"], "attr": {"T": {"type": "DT_FLOAT"}, "Tshape": {"type": "DT_INT32"}}}, {"name": "StatefulPartitionedCall/model/bert/encoder/layer_1/attention/self/key/Tensordot/Reshape", "op": "Reshape", "input": ["StatefulPartitionedCall/model/bert/encoder/layer_0/output/LayerNorm/add_1", "StatefulPartitionedCall/model/bert/encoder/layer_1/attention/self/key/Tensordot/stack"], "attr": {"T": {"type": "DT_FLOAT"}, "Tshape": {"type": "DT_INT32"}}}, {"name": "StatefulPartitionedCall/model/bert/encoder/layer_1/attention/self/ExpandDims", "op": "ExpandDims", "input": ["StatefulPartitionedCall/model/bert/encoder/layer_1/attention/self/ones", "StatefulPartitionedCall/model/bert/encoder/layer_1/attention/self/ExpandDims/dim"], "attr": {"Tdim": {"type": "DT_INT32"}, "T": {"type": "DT_INT32"}}}, {"name": "StatefulPartitionedCall/model/bert/encoder/layer_1/attention/self/value/Tensordot/Reshape", "op": "Reshape", "input": ["StatefulPartitionedCall/model/bert/encoder/layer_0/output/LayerNorm/add_1", "StatefulPartitionedCall/model/bert/encoder/layer_1/attention/self/value/Tensordot/stack"], "attr": {"T": {"type": "DT_FLOAT"}, "Tshape": {"type": "DT_INT32"}}}, {"name": "StatefulPartitionedCall/model/bert/encoder/layer_1/attention/self/query/Tensordot/MatMul", "op": "MatMul", "input": ["StatefulPartitionedCall/model/bert/encoder/layer_1/attention/self/query/Tensordot/Reshape", "StatefulPartitionedCall/model/bert/encoder/layer_1/attention/self/query/Tensordot/ReadVariableOp"], "device": "/device:CPU:0", "attr": {"transpose_a": {"b": false}, "transpose_b": {"b": false}, "T": {"type": "DT_FLOAT"}}}, {"name": "StatefulPartitionedCall/model/bert/encoder/layer_1/attention/self/key/Tensordot/MatMul", "op": "MatMul", "input": ["StatefulPartitionedCall/model/bert/encoder/layer_1/attention/self/key/Tensordot/Reshape", "StatefulPartitionedCall/model/bert/encoder/layer_1/attention/self/key/Tensordot/ReadVariableOp"], "device": "/device:CPU:0", "attr": {"transpose_a": {"b": false}, "transpose_b": {"b": false}, "T": {"type": "DT_FLOAT"}}}, {"name": "StatefulPartitionedCall/model/bert/encoder/layer_1/attention/self/Cast", "op": "Cast", "input": ["StatefulPartitionedCall/model/bert/encoder/layer_1/attention/self/ExpandDims"], "attr": {"SrcT": {"type": "DT_INT32"}, "Truncate": {"b": false}, "DstT": {"type": "DT_FLOAT"}}}, {"name": "StatefulPartitionedCall/model/bert/encoder/layer_1/attention/self/value/Tensordot/MatMul", "op": "MatMul", "input": ["StatefulPartitionedCall/model/bert/encoder/layer_1/attention/self/value/Tensordot/Reshape", "StatefulPartitionedCall/model/bert/encoder/layer_1/attention/self/value/Tensordot/ReadVariableOp"], "device": "/device:CPU:0", "attr": {"T": {"type": "DT_FLOAT"}, "transpose_a": {"b": false}, "transpose_b": {"b": false}}}, {"name": "StatefulPartitionedCall/model/bert/encoder/layer_1/attention/self/query/Tensordot", "op": "Reshape", "input": ["StatefulPartitionedCall/model/bert/encoder/layer_1/attention/self/query/Tensordot/MatMul", "StatefulPartitionedCall/model/bert/encoder/layer_1/attention/self/query/Tensordot/concat_1"], "attr": {"T": {"type": "DT_FLOAT"}, "Tshape": {"type": "DT_INT32"}}}, {"name": "StatefulPartitionedCall/model/bert/encoder/layer_1/attention/self/key/Tensordot", "op": "Reshape", "input": ["StatefulPartitionedCall/model/bert/encoder/layer_1/attention/self/key/Tensordot/MatMul", "StatefulPartitionedCall/model/bert/encoder/layer_1/attention/self/key/Tensordot/concat_1"], "attr": {"T": {"type": "DT_FLOAT"}, "Tshape": {"type": "DT_INT32"}}}, {"name": "StatefulPartitionedCall/model/bert/encoder/layer_1/attention/self/mul", "op": "Mul", "input": ["StatefulPartitionedCall/model/bert/encoder/layer_1/attention/self/ExpandDims_1", "StatefulPartitionedCall/model/bert/encoder/layer_1/attention/self/Cast"], "attr": {"T": {"type": "DT_FLOAT"}}}, {"name": "StatefulPartitionedCall/model/bert/encoder/layer_1/attention/self/value/Tensordot", "op": "Reshape", "input": ["StatefulPartitionedCall/model/bert/encoder/layer_1/attention/self/value/Tensordot/MatMul", "StatefulPartitionedCall/model/bert/encoder/layer_1/attention/self/value/Tensordot/concat_1"], "attr": {"T": {"type": "DT_FLOAT"}, "Tshape": {"type": "DT_INT32"}}}, {"name": "StatefulPartitionedCall/model/bert/encoder/layer_1/attention/self/query/BiasAdd", "op": "BiasAdd", "input": ["StatefulPartitionedCall/model/bert/encoder/layer_1/attention/self/query/Tensordot", "StatefulPartitionedCall/model/bert/encoder/layer_1/attention/self/query/BiasAdd/ReadVariableOp"], "attr": {"data_format": {"s": "TkhXQw=="}, "T": {"type": "DT_FLOAT"}}}, {"name": "StatefulPartitionedCall/model/bert/encoder/layer_1/attention/self/key/BiasAdd", "op": "BiasAdd", "input": ["StatefulPartitionedCall/model/bert/encoder/layer_1/attention/self/key/Tensordot", "StatefulPartitionedCall/model/bert/encoder/layer_1/attention/self/key/BiasAdd/ReadVariableOp"], "attr": {"T": {"type": "DT_FLOAT"}, "data_format": {"s": "TkhXQw=="}}}, {"name": "StatefulPartitionedCall/model/bert/encoder/layer_1/attention/self/ExpandDims_2", "op": "ExpandDims", "input": ["StatefulPartitionedCall/model/bert/encoder/layer_1/attention/self/mul", "StatefulPartitionedCall/model/bert/encoder/layer_1/attention/self/ExpandDims_2/dim"], "attr": {"Tdim": {"type": "DT_INT32"}, "T": {"type": "DT_FLOAT"}}}, {"name": "StatefulPartitionedCall/model/bert/encoder/layer_1/attention/self/value/BiasAdd", "op": "BiasAdd", "input": ["StatefulPartitionedCall/model/bert/encoder/layer_1/attention/self/value/Tensordot", "StatefulPartitionedCall/model/bert/encoder/layer_1/attention/self/value/BiasAdd/ReadVariableOp"], "attr": {"T": {"type": "DT_FLOAT"}, "data_format": {"s": "TkhXQw=="}}}, {"name": "StatefulPartitionedCall/model/bert/encoder/layer_1/attention/self/Reshape", "op": "Reshape", "input": ["StatefulPartitionedCall/model/bert/encoder/layer_1/attention/self/query/BiasAdd", "StatefulPartitionedCall/model/bert/encoder/layer_1/attention/self/Reshape/shape"], "attr": {"T": {"type": "DT_FLOAT"}, "Tshape": {"type": "DT_INT32"}}}, {"name": "StatefulPartitionedCall/model/bert/encoder/layer_1/attention/self/Reshape_1", "op": "Reshape", "input": ["StatefulPartitionedCall/model/bert/encoder/layer_1/attention/self/key/BiasAdd", "StatefulPartitionedCall/model/bert/encoder/layer_1/attention/self/Reshape_1/shape"], "attr": {"T": {"type": "DT_FLOAT"}, "Tshape": {"type": "DT_INT32"}}}, {"name": "StatefulPartitionedCall/model/bert/encoder/layer_1/attention/self/sub", "op": "Sub", "input": ["StatefulPartitionedCall/model/bert/encoder/layer_1/attention/self/sub/x", "StatefulPartitionedCall/model/bert/encoder/layer_1/attention/self/ExpandDims_2"], "attr": {"T": {"type": "DT_FLOAT"}}}, {"name": "StatefulPartitionedCall/model/bert/encoder/layer_1/attention/self/Reshape_2", "op": "Reshape", "input": ["StatefulPartitionedCall/model/bert/encoder/layer_1/attention/self/value/BiasAdd", "StatefulPartitionedCall/model/bert/encoder/layer_1/attention/self/Reshape_2/shape"], "attr": {"T": {"type": "DT_FLOAT"}, "Tshape": {"type": "DT_INT32"}}}, {"name": "StatefulPartitionedCall/model/bert/encoder/layer_1/attention/self/transpose", "op": "Transpose", "input": ["StatefulPartitionedCall/model/bert/encoder/layer_1/attention/self/Reshape", "StatefulPartitionedCall/model/bert/encoder/layer_1/attention/self/transpose/perm"], "attr": {"Tperm": {"type": "DT_INT32"}, "T": {"type": "DT_FLOAT"}}}, {"name": "StatefulPartitionedCall/model/bert/encoder/layer_1/attention/self/transpose_1", "op": "Transpose", "input": ["StatefulPartitionedCall/model/bert/encoder/layer_1/attention/self/Reshape_1", "StatefulPartitionedCall/model/bert/encoder/layer_1/attention/self/transpose_1/perm"], "attr": {"Tperm": {"type": "DT_INT32"}, "T": {"type": "DT_FLOAT"}}}, {"name": "StatefulPartitionedCall/model/bert/encoder/layer_1/attention/self/mul_1", "op": "Mul", "input": ["StatefulPartitionedCall/model/bert/encoder/layer_1/attention/self/sub", "StatefulPartitionedCall/model/bert/encoder/layer_1/attention/self/mul_1/y"], "attr": {"T": {"type": "DT_FLOAT"}}}, {"name": "StatefulPartitionedCall/model/bert/encoder/layer_1/attention/self/transpose_2", "op": "Transpose", "input": ["StatefulPartitionedCall/model/bert/encoder/layer_1/attention/self/Reshape_2", "StatefulPartitionedCall/model/bert/encoder/layer_1/attention/self/transpose_2/perm"], "attr": {"Tperm": {"type": "DT_INT32"}, "T": {"type": "DT_FLOAT"}}}, {"name": "StatefulPartitionedCall/model/bert/encoder/layer_1/attention/self/MatMul", "op": "BatchMatMulV2", "input": ["StatefulPartitionedCall/model/bert/encoder/layer_1/attention/self/transpose", "StatefulPartitionedCall/model/bert/encoder/layer_1/attention/self/transpose_1"], "attr": {"adj_x": {"b": false}, "adj_y": {"b": true}, "T": {"type": "DT_FLOAT"}}}, {"name": "StatefulPartitionedCall/model/bert/encoder/layer_1/attention/self/truediv", "op": "Mul", "input": ["StatefulPartitionedCall/model/bert/encoder/layer_1/attention/self/MatMul", "ConstantFolding/StatefulPartitionedCall/model/bert/encoder/layer_1/attention/self/truediv_recip"], "attr": {"T": {"type": "DT_FLOAT"}}}, {"name": "StatefulPartitionedCall/model/bert/encoder/layer_1/attention/self/Add", "op": "Add", "input": ["StatefulPartitionedCall/model/bert/encoder/layer_1/attention/self/truediv", "StatefulPartitionedCall/model/bert/encoder/layer_1/attention/self/mul_1"], "attr": {"T": {"type": "DT_FLOAT"}}}, {"name": "StatefulPartitionedCall/model/bert/encoder/layer_1/attention/self/Softmax", "op": "Softmax", "input": ["StatefulPartitionedCall/model/bert/encoder/layer_1/attention/self/Add"], "attr": {"T": {"type": "DT_FLOAT"}}}, {"name": "StatefulPartitionedCall/model/bert/encoder/layer_1/attention/self/MatMul_1", "op": "BatchMatMulV2", "input": ["StatefulPartitionedCall/model/bert/encoder/layer_1/attention/self/Softmax", "StatefulPartitionedCall/model/bert/encoder/layer_1/attention/self/transpose_2"], "attr": {"T": {"type": "DT_FLOAT"}, "adj_x": {"b": false}, "adj_y": {"b": false}}}, {"name": "StatefulPartitionedCall/model/bert/encoder/layer_1/attention/self/transpose_3", "op": "Transpose", "input": ["StatefulPartitionedCall/model/bert/encoder/layer_1/attention/self/MatMul_1", "StatefulPartitionedCall/model/bert/encoder/layer_1/attention/self/transpose_3/perm"], "attr": {"T": {"type": "DT_FLOAT"}, "Tperm": {"type": "DT_INT32"}}}, {"name": "StatefulPartitionedCall/model/bert/encoder/layer_1/attention/self/Reshape_3", "op": "Reshape", "input": ["StatefulPartitionedCall/model/bert/encoder/layer_1/attention/self/transpose_3", "StatefulPartitionedCall/model/bert/encoder/layer_1/attention/self/Reshape_3/shape"], "attr": {"T": {"type": "DT_FLOAT"}, "Tshape": {"type": "DT_INT32"}}}, {"name": "StatefulPartitionedCall/model/bert/encoder/layer_1/attention/output/dense/Tensordot/Shape", "op": "Shape", "input": ["StatefulPartitionedCall/model/bert/encoder/layer_1/attention/self/Reshape_3"], "attr": {"T": {"type": "DT_FLOAT"}, "out_type": {"type": "DT_INT32"}}}, {"name": "StatefulPartitionedCall/model/bert/encoder/layer_1/attention/output/dense/Tensordot/GatherV2_1", "op": "GatherV2", "input": ["StatefulPartitionedCall/model/bert/encoder/layer_1/attention/output/dense/Tensordot/Shape", "StatefulPartitionedCall/model/bert/encoder/layer_1/attention/output/dense/Tensordot/axes", "StatefulPartitionedCall/model/bert/encoder/layer_1/attention/output/dense/Tensordot/GatherV2_1/axis"], "attr": {"Taxis": {"type": "DT_INT32"}, "batch_dims": {"i": "0"}, "Tindices": {"type": "DT_INT32"}, "Tparams": {"type": "DT_INT32"}}}, {"name": "StatefulPartitionedCall/model/bert/encoder/layer_1/attention/output/dense/Tensordot/GatherV2", "op": "GatherV2", "input": ["StatefulPartitionedCall/model/bert/encoder/layer_1/attention/output/dense/Tensordot/Shape", "StatefulPartitionedCall/model/bert/encoder/layer_1/attention/output/dense/Tensordot/free", "StatefulPartitionedCall/model/bert/encoder/layer_1/attention/output/dense/Tensordot/GatherV2/axis"], "attr": {"Tparams": {"type": "DT_INT32"}, "Taxis": {"type": "DT_INT32"}, "batch_dims": {"i": "0"}, "Tindices": {"type": "DT_INT32"}}}, {"name": "StatefulPartitionedCall/model/bert/encoder/layer_1/attention/output/dense/Tensordot/Prod_1", "op": "Prod", "input": ["StatefulPartitionedCall/model/bert/encoder/layer_1/attention/output/dense/Tensordot/GatherV2_1", "StatefulPartitionedCall/model/bert/encoder/layer_1/attention/output/dense/Tensordot/Const_1"], "attr": {"T": {"type": "DT_INT32"}, "keep_dims": {"b": false}, "Tidx": {"type": "DT_INT32"}}}, {"name": "StatefulPartitionedCall/model/bert/encoder/layer_1/attention/output/dense/Tensordot/Prod", "op": "Prod", "input": ["StatefulPartitionedCall/model/bert/encoder/layer_1/attention/output/dense/Tensordot/GatherV2", "StatefulPartitionedCall/model/bert/encoder/layer_1/attention/output/dense/Tensordot/Const"], "attr": {"T": {"type": "DT_INT32"}, "keep_dims": {"b": false}, "Tidx": {"type": "DT_INT32"}}}, {"name": "StatefulPartitionedCall/model/bert/encoder/layer_1/attention/output/dense/Tensordot/concat_1", "op": "ConcatV2", "input": ["StatefulPartitionedCall/model/bert/encoder/layer_1/attention/output/dense/Tensordot/GatherV2", "StatefulPartitionedCall/model/bert/encoder/layer_1/attention/output/dense/Tensordot/Const_2", "StatefulPartitionedCall/model/bert/encoder/layer_1/attention/output/dense/Tensordot/concat_1/axis"], "attr": {"Tidx": {"type": "DT_INT32"}, "T": {"type": "DT_INT32"}, "N": {"i": "2"}}}, {"name": "StatefulPartitionedCall/model/bert/encoder/layer_1/attention/output/dense/Tensordot/stack", "op": "Pack", "input": ["StatefulPartitionedCall/model/bert/encoder/layer_1/attention/output/dense/Tensordot/Prod", "StatefulPartitionedCall/model/bert/encoder/layer_1/attention/output/dense/Tensordot/Prod_1"], "attr": {"T": {"type": "DT_INT32"}, "axis": {"i": "0"}, "N": {"i": "2"}}}, {"name": "StatefulPartitionedCall/model/bert/encoder/layer_1/attention/output/dense/Tensordot/Reshape", "op": "Reshape", "input": ["StatefulPartitionedCall/model/bert/encoder/layer_1/attention/self/transpose_3", "StatefulPartitionedCall/model/bert/encoder/layer_1/attention/output/dense/Tensordot/stack"], "attr": {"T": {"type": "DT_FLOAT"}, "Tshape": {"type": "DT_INT32"}}}, {"name": "StatefulPartitionedCall/model/bert/encoder/layer_1/attention/output/dense/Tensordot/MatMul", "op": "MatMul", "input": ["StatefulPartitionedCall/model/bert/encoder/layer_1/attention/output/dense/Tensordot/Reshape", "StatefulPartitionedCall/model/bert/encoder/layer_1/attention/output/dense/Tensordot/ReadVariableOp"], "device": "/device:CPU:0", "attr": {"transpose_a": {"b": false}, "transpose_b": {"b": false}, "T": {"type": "DT_FLOAT"}}}, {"name": "StatefulPartitionedCall/model/bert/encoder/layer_1/attention/output/dense/Tensordot", "op": "Reshape", "input": ["StatefulPartitionedCall/model/bert/encoder/layer_1/attention/output/dense/Tensordot/MatMul", "StatefulPartitionedCall/model/bert/encoder/layer_1/attention/output/dense/Tensordot/concat_1"], "attr": {"T": {"type": "DT_FLOAT"}, "Tshape": {"type": "DT_INT32"}}}, {"name": "StatefulPartitionedCall/model/bert/encoder/layer_1/attention/output/dense/BiasAdd", "op": "BiasAdd", "input": ["StatefulPartitionedCall/model/bert/encoder/layer_1/attention/output/dense/Tensordot", "StatefulPartitionedCall/model/bert/encoder/layer_1/attention/output/dense/BiasAdd/ReadVariableOp"], "attr": {"T": {"type": "DT_FLOAT"}, "data_format": {"s": "TkhXQw=="}}}, {"name": "StatefulPartitionedCall/model/bert/encoder/layer_1/attention/output/Add", "op": "Add", "input": ["StatefulPartitionedCall/model/bert/encoder/layer_1/attention/output/dense/BiasAdd", "StatefulPartitionedCall/model/bert/encoder/layer_0/output/LayerNorm/add_1"], "attr": {"T": {"type": "DT_FLOAT"}}}, {"name": "StatefulPartitionedCall/model/bert/encoder/layer_1/attention/output/LayerNorm/moments/mean", "op": "Mean", "input": ["StatefulPartitionedCall/model/bert/encoder/layer_1/attention/output/Add", "StatefulPartitionedCall/model/bert/encoder/layer_1/attention/output/LayerNorm/moments/mean/reduction_indices"], "attr": {"T": {"type": "DT_FLOAT"}, "keep_dims": {"b": true}, "Tidx": {"type": "DT_INT32"}}}, {"name": "StatefulPartitionedCall/model/bert/encoder/layer_1/attention/output/LayerNorm/moments/SquaredDifference", "op": "SquaredDifference", "input": ["StatefulPartitionedCall/model/bert/encoder/layer_1/attention/output/Add", "StatefulPartitionedCall/model/bert/encoder/layer_1/attention/output/LayerNorm/moments/mean"], "attr": {"T": {"type": "DT_FLOAT"}}}, {"name": "StatefulPartitionedCall/model/bert/encoder/layer_1/attention/output/LayerNorm/moments/variance", "op": "Mean", "input": ["StatefulPartitionedCall/model/bert/encoder/layer_1/attention/output/LayerNorm/moments/SquaredDifference", "StatefulPartitionedCall/model/bert/encoder/layer_1/attention/output/LayerNorm/moments/variance/reduction_indices"], "attr": {"keep_dims": {"b": true}, "Tidx": {"type": "DT_INT32"}, "T": {"type": "DT_FLOAT"}}}, {"name": "StatefulPartitionedCall/model/bert/encoder/layer_1/attention/output/LayerNorm/add", "op": "AddV2", "input": ["StatefulPartitionedCall/model/bert/encoder/layer_1/attention/output/LayerNorm/moments/variance", "StatefulPartitionedCall/model/bert/encoder/layer_1/attention/output/LayerNorm/add/y"], "attr": {"T": {"type": "DT_FLOAT"}}}, {"name": "StatefulPartitionedCall/model/bert/encoder/layer_1/attention/output/LayerNorm/Rsqrt", "op": "Rsqrt", "input": ["StatefulPartitionedCall/model/bert/encoder/layer_1/attention/output/LayerNorm/add"], "attr": {"T": {"type": "DT_FLOAT"}}}, {"name": "StatefulPartitionedCall/model/bert/encoder/layer_1/attention/output/LayerNorm/mul", "op": "Mul", "input": ["StatefulPartitionedCall/model/bert/encoder/layer_1/attention/output/LayerNorm/ReadVariableOp", "StatefulPartitionedCall/model/bert/encoder/layer_1/attention/output/LayerNorm/Rsqrt"], "attr": {"T": {"type": "DT_FLOAT"}}}, {"name": "StatefulPartitionedCall/model/bert/encoder/layer_1/attention/output/LayerNorm/mul_2", "op": "Mul", "input": ["StatefulPartitionedCall/model/bert/encoder/layer_1/attention/output/LayerNorm/moments/mean", "StatefulPartitionedCall/model/bert/encoder/layer_1/attention/output/LayerNorm/mul"], "attr": {"T": {"type": "DT_FLOAT"}}}, {"name": "StatefulPartitionedCall/model/bert/encoder/layer_1/attention/output/LayerNorm/mul_1", "op": "Mul", "input": ["StatefulPartitionedCall/model/bert/encoder/layer_1/attention/output/Add", "StatefulPartitionedCall/model/bert/encoder/layer_1/attention/output/LayerNorm/mul"], "attr": {"T": {"type": "DT_FLOAT"}}}, {"name": "StatefulPartitionedCall/model/bert/encoder/layer_1/attention/output/LayerNorm/sub", "op": "Sub", "input": ["StatefulPartitionedCall/model/bert/encoder/layer_1/attention/output/LayerNorm/ReadVariableOp_1", "StatefulPartitionedCall/model/bert/encoder/layer_1/attention/output/LayerNorm/mul_2"], "attr": {"T": {"type": "DT_FLOAT"}}}, {"name": "StatefulPartitionedCall/model/bert/encoder/layer_1/attention/output/LayerNorm/add_1", "op": "AddV2", "input": ["StatefulPartitionedCall/model/bert/encoder/layer_1/attention/output/LayerNorm/mul_1", "StatefulPartitionedCall/model/bert/encoder/layer_1/attention/output/LayerNorm/sub"], "attr": {"T": {"type": "DT_FLOAT"}}}, {"name": "StatefulPartitionedCall/model/bert/encoder/layer_1/intermediate/Tensordot/Shape", "op": "Shape", "input": ["StatefulPartitionedCall/model/bert/encoder/layer_1/attention/output/LayerNorm/add_1"], "attr": {"T": {"type": "DT_FLOAT"}, "out_type": {"type": "DT_INT32"}}}, {"name": "StatefulPartitionedCall/model/bert/encoder/layer_1/intermediate/Tensordot/GatherV2_1", "op": "GatherV2", "input": ["StatefulPartitionedCall/model/bert/encoder/layer_1/intermediate/Tensordot/Shape", "StatefulPartitionedCall/model/bert/encoder/layer_1/intermediate/Tensordot/axes", "StatefulPartitionedCall/model/bert/encoder/layer_1/intermediate/Tensordot/GatherV2_1/axis"], "attr": {"Taxis": {"type": "DT_INT32"}, "batch_dims": {"i": "0"}, "Tindices": {"type": "DT_INT32"}, "Tparams": {"type": "DT_INT32"}}}, {"name": "StatefulPartitionedCall/model/bert/encoder/layer_1/intermediate/Tensordot/GatherV2", "op": "GatherV2", "input": ["StatefulPartitionedCall/model/bert/encoder/layer_1/intermediate/Tensordot/Shape", "StatefulPartitionedCall/model/bert/encoder/layer_1/intermediate/Tensordot/free", "StatefulPartitionedCall/model/bert/encoder/layer_1/intermediate/Tensordot/GatherV2/axis"], "attr": {"Taxis": {"type": "DT_INT32"}, "batch_dims": {"i": "0"}, "Tindices": {"type": "DT_INT32"}, "Tparams": {"type": "DT_INT32"}}}, {"name": "StatefulPartitionedCall/model/bert/encoder/layer_1/intermediate/Tensordot/Prod_1", "op": "Prod", "input": ["StatefulPartitionedCall/model/bert/encoder/layer_1/intermediate/Tensordot/GatherV2_1", "StatefulPartitionedCall/model/bert/encoder/layer_1/intermediate/Tensordot/Const_1"], "attr": {"keep_dims": {"b": false}, "Tidx": {"type": "DT_INT32"}, "T": {"type": "DT_INT32"}}}, {"name": "StatefulPartitionedCall/model/bert/encoder/layer_1/intermediate/Tensordot/Prod", "op": "Prod", "input": ["StatefulPartitionedCall/model/bert/encoder/layer_1/intermediate/Tensordot/GatherV2", "StatefulPartitionedCall/model/bert/encoder/layer_1/intermediate/Tensordot/Const"], "attr": {"T": {"type": "DT_INT32"}, "keep_dims": {"b": false}, "Tidx": {"type": "DT_INT32"}}}, {"name": "StatefulPartitionedCall/model/bert/encoder/layer_1/intermediate/Tensordot/concat_1", "op": "ConcatV2", "input": ["StatefulPartitionedCall/model/bert/encoder/layer_1/intermediate/Tensordot/GatherV2", "StatefulPartitionedCall/model/bert/encoder/layer_1/intermediate/Tensordot/Const_2", "StatefulPartitionedCall/model/bert/encoder/layer_1/intermediate/Tensordot/concat_1/axis"], "attr": {"Tidx": {"type": "DT_INT32"}, "T": {"type": "DT_INT32"}, "N": {"i": "2"}}}, {"name": "StatefulPartitionedCall/model/bert/encoder/layer_1/intermediate/Tensordot/stack", "op": "Pack", "input": ["StatefulPartitionedCall/model/bert/encoder/layer_1/intermediate/Tensordot/Prod", "StatefulPartitionedCall/model/bert/encoder/layer_1/intermediate/Tensordot/Prod_1"], "attr": {"T": {"type": "DT_INT32"}, "axis": {"i": "0"}, "N": {"i": "2"}}}, {"name": "StatefulPartitionedCall/model/bert/encoder/layer_1/intermediate/Tensordot/Reshape", "op": "Reshape", "input": ["StatefulPartitionedCall/model/bert/encoder/layer_1/attention/output/LayerNorm/add_1", "StatefulPartitionedCall/model/bert/encoder/layer_1/intermediate/Tensordot/stack"], "attr": {"T": {"type": "DT_FLOAT"}, "Tshape": {"type": "DT_INT32"}}}, {"name": "StatefulPartitionedCall/model/bert/encoder/layer_1/intermediate/Tensordot/MatMul", "op": "MatMul", "input": ["StatefulPartitionedCall/model/bert/encoder/layer_1/intermediate/Tensordot/Reshape", "StatefulPartitionedCall/model/bert/encoder/layer_1/intermediate/Tensordot/ReadVariableOp"], "device": "/device:CPU:0", "attr": {"transpose_a": {"b": false}, "transpose_b": {"b": false}, "T": {"type": "DT_FLOAT"}}}, {"name": "StatefulPartitionedCall/model/bert/encoder/layer_1/intermediate/Tensordot", "op": "Reshape", "input": ["StatefulPartitionedCall/model/bert/encoder/layer_1/intermediate/Tensordot/MatMul", "StatefulPartitionedCall/model/bert/encoder/layer_1/intermediate/Tensordot/concat_1"], "attr": {"Tshape": {"type": "DT_INT32"}, "T": {"type": "DT_FLOAT"}}}, {"name": "StatefulPartitionedCall/model/bert/encoder/layer_1/intermediate/BiasAdd", "op": "BiasAdd", "input": ["StatefulPartitionedCall/model/bert/encoder/layer_1/intermediate/Tensordot", "StatefulPartitionedCall/model/bert/encoder/layer_1/intermediate/BiasAdd/ReadVariableOp"], "attr": {"T": {"type": "DT_FLOAT"}, "data_format": {"s": "TkhXQw=="}}}, {"name": "StatefulPartitionedCall/model/bert/encoder/layer_1/intermediate/mul_2", "op": "Mul", "input": ["StatefulPartitionedCall/model/bert/encoder/layer_1/intermediate/mul_2/x", "StatefulPartitionedCall/model/bert/encoder/layer_1/intermediate/BiasAdd"], "attr": {"_grappler_ArithmeticOptimizer_MinimizeBroadcasts": {"b": true}, "T": {"type": "DT_FLOAT"}}}, {"name": "StatefulPartitionedCall/model/bert/encoder/layer_1/intermediate/Pow", "op": "Pow", "input": ["StatefulPartitionedCall/model/bert/encoder/layer_1/intermediate/BiasAdd", "StatefulPartitionedCall/model/bert/encoder/layer_1/intermediate/Pow/y"], "attr": {"T": {"type": "DT_FLOAT"}}}, {"name": "StatefulPartitionedCall/model/bert/encoder/layer_1/intermediate/mul", "op": "Mul", "input": ["StatefulPartitionedCall/model/bert/encoder/layer_1/intermediate/mul/x", "StatefulPartitionedCall/model/bert/encoder/layer_1/intermediate/Pow"], "attr": {"T": {"type": "DT_FLOAT"}}}, {"name": "StatefulPartitionedCall/model/bert/encoder/layer_1/intermediate/add", "op": "AddV2", "input": ["StatefulPartitionedCall/model/bert/encoder/layer_1/intermediate/BiasAdd", "StatefulPartitionedCall/model/bert/encoder/layer_1/intermediate/mul"], "attr": {"T": {"type": "DT_FLOAT"}}}, {"name": "StatefulPartitionedCall/model/bert/encoder/layer_1/intermediate/mul_1", "op": "Mul", "input": ["StatefulPartitionedCall/model/bert/encoder/layer_1/intermediate/mul_1/x", "StatefulPartitionedCall/model/bert/encoder/layer_1/intermediate/add"], "attr": {"T": {"type": "DT_FLOAT"}}}, {"name": "StatefulPartitionedCall/model/bert/encoder/layer_1/intermediate/Tanh", "op": "Tanh", "input": ["StatefulPartitionedCall/model/bert/encoder/layer_1/intermediate/mul_1"], "attr": {"T": {"type": "DT_FLOAT"}}}, {"name": "StatefulPartitionedCall/model/bert/encoder/layer_1/intermediate/add_1", "op": "AddV2", "input": ["StatefulPartitionedCall/model/bert/encoder/layer_1/intermediate/add_1/x", "StatefulPartitionedCall/model/bert/encoder/layer_1/intermediate/Tanh"], "attr": {"T": {"type": "DT_FLOAT"}}}, {"name": "StatefulPartitionedCall/model/bert/encoder/layer_1/intermediate/mul_3", "op": "Mul", "input": ["StatefulPartitionedCall/model/bert/encoder/layer_1/intermediate/mul_2", "StatefulPartitionedCall/model/bert/encoder/layer_1/intermediate/add_1"], "attr": {"_grappler_ArithmeticOptimizer_MinimizeBroadcasts": {"b": true}, "T": {"type": "DT_FLOAT"}}}, {"name": "StatefulPartitionedCall/model/bert/encoder/layer_1/output/dense/Tensordot/Shape", "op": "Shape", "input": ["StatefulPartitionedCall/model/bert/encoder/layer_1/intermediate/mul_3"], "attr": {"T": {"type": "DT_FLOAT"}, "out_type": {"type": "DT_INT32"}}}, {"name": "StatefulPartitionedCall/model/bert/encoder/layer_1/output/dense/Tensordot/GatherV2_1", "op": "GatherV2", "input": ["StatefulPartitionedCall/model/bert/encoder/layer_1/output/dense/Tensordot/Shape", "StatefulPartitionedCall/model/bert/encoder/layer_1/output/dense/Tensordot/axes", "StatefulPartitionedCall/model/bert/encoder/layer_1/output/dense/Tensordot/GatherV2_1/axis"], "attr": {"Taxis": {"type": "DT_INT32"}, "batch_dims": {"i": "0"}, "Tindices": {"type": "DT_INT32"}, "Tparams": {"type": "DT_INT32"}}}, {"name": "StatefulPartitionedCall/model/bert/encoder/layer_1/output/dense/Tensordot/GatherV2", "op": "GatherV2", "input": ["StatefulPartitionedCall/model/bert/encoder/layer_1/output/dense/Tensordot/Shape", "StatefulPartitionedCall/model/bert/encoder/layer_1/output/dense/Tensordot/free", "StatefulPartitionedCall/model/bert/encoder/layer_1/output/dense/Tensordot/GatherV2/axis"], "attr": {"Tindices": {"type": "DT_INT32"}, "Tparams": {"type": "DT_INT32"}, "Taxis": {"type": "DT_INT32"}, "batch_dims": {"i": "0"}}}, {"name": "StatefulPartitionedCall/model/bert/encoder/layer_1/output/dense/Tensordot/Prod_1", "op": "Prod", "input": ["StatefulPartitionedCall/model/bert/encoder/layer_1/output/dense/Tensordot/GatherV2_1", "StatefulPartitionedCall/model/bert/encoder/layer_1/output/dense/Tensordot/Const_1"], "attr": {"keep_dims": {"b": false}, "Tidx": {"type": "DT_INT32"}, "T": {"type": "DT_INT32"}}}, {"name": "StatefulPartitionedCall/model/bert/encoder/layer_1/output/dense/Tensordot/Prod", "op": "Prod", "input": ["StatefulPartitionedCall/model/bert/encoder/layer_1/output/dense/Tensordot/GatherV2", "StatefulPartitionedCall/model/bert/encoder/layer_1/output/dense/Tensordot/Const"], "attr": {"T": {"type": "DT_INT32"}, "keep_dims": {"b": false}, "Tidx": {"type": "DT_INT32"}}}, {"name": "StatefulPartitionedCall/model/bert/encoder/layer_1/output/dense/Tensordot/concat_1", "op": "ConcatV2", "input": ["StatefulPartitionedCall/model/bert/encoder/layer_1/output/dense/Tensordot/GatherV2", "StatefulPartitionedCall/model/bert/encoder/layer_1/output/dense/Tensordot/Const_2", "StatefulPartitionedCall/model/bert/encoder/layer_1/output/dense/Tensordot/concat_1/axis"], "attr": {"Tidx": {"type": "DT_INT32"}, "T": {"type": "DT_INT32"}, "N": {"i": "2"}}}, {"name": "StatefulPartitionedCall/model/bert/encoder/layer_1/output/dense/Tensordot/stack", "op": "Pack", "input": ["StatefulPartitionedCall/model/bert/encoder/layer_1/output/dense/Tensordot/Prod", "StatefulPartitionedCall/model/bert/encoder/layer_1/output/dense/Tensordot/Prod_1"], "attr": {"T": {"type": "DT_INT32"}, "axis": {"i": "0"}, "N": {"i": "2"}}}, {"name": "StatefulPartitionedCall/model/bert/encoder/layer_1/output/dense/Tensordot/Reshape", "op": "Reshape", "input": ["StatefulPartitionedCall/model/bert/encoder/layer_1/intermediate/mul_3", "StatefulPartitionedCall/model/bert/encoder/layer_1/output/dense/Tensordot/stack"], "attr": {"T": {"type": "DT_FLOAT"}, "Tshape": {"type": "DT_INT32"}}}, {"name": "StatefulPartitionedCall/model/bert/encoder/layer_1/output/dense/Tensordot/MatMul", "op": "MatMul", "input": ["StatefulPartitionedCall/model/bert/encoder/layer_1/output/dense/Tensordot/Reshape", "StatefulPartitionedCall/model/bert/encoder/layer_1/output/dense/Tensordot/ReadVariableOp"], "device": "/device:CPU:0", "attr": {"T": {"type": "DT_FLOAT"}, "transpose_a": {"b": false}, "transpose_b": {"b": false}}}, {"name": "StatefulPartitionedCall/model/bert/encoder/layer_1/output/dense/Tensordot", "op": "Reshape", "input": ["StatefulPartitionedCall/model/bert/encoder/layer_1/output/dense/Tensordot/MatMul", "StatefulPartitionedCall/model/bert/encoder/layer_1/output/dense/Tensordot/concat_1"], "attr": {"T": {"type": "DT_FLOAT"}, "Tshape": {"type": "DT_INT32"}}}, {"name": "StatefulPartitionedCall/model/bert/encoder/layer_1/output/dense/BiasAdd", "op": "BiasAdd", "input": ["StatefulPartitionedCall/model/bert/encoder/layer_1/output/dense/Tensordot", "StatefulPartitionedCall/model/bert/encoder/layer_1/output/dense/BiasAdd/ReadVariableOp"], "attr": {"data_format": {"s": "TkhXQw=="}, "T": {"type": "DT_FLOAT"}}}, {"name": "StatefulPartitionedCall/model/bert/encoder/layer_1/output/Add", "op": "Add", "input": ["StatefulPartitionedCall/model/bert/encoder/layer_1/output/dense/BiasAdd", "StatefulPartitionedCall/model/bert/encoder/layer_1/attention/output/LayerNorm/add_1"], "attr": {"T": {"type": "DT_FLOAT"}}}, {"name": "StatefulPartitionedCall/model/bert/encoder/layer_1/output/LayerNorm/moments/mean", "op": "Mean", "input": ["StatefulPartitionedCall/model/bert/encoder/layer_1/output/Add", "StatefulPartitionedCall/model/bert/encoder/layer_1/output/LayerNorm/moments/mean/reduction_indices"], "attr": {"keep_dims": {"b": true}, "Tidx": {"type": "DT_INT32"}, "T": {"type": "DT_FLOAT"}}}, {"name": "StatefulPartitionedCall/model/bert/encoder/layer_1/output/LayerNorm/moments/SquaredDifference", "op": "SquaredDifference", "input": ["StatefulPartitionedCall/model/bert/encoder/layer_1/output/Add", "StatefulPartitionedCall/model/bert/encoder/layer_1/output/LayerNorm/moments/mean"], "attr": {"T": {"type": "DT_FLOAT"}}}, {"name": "StatefulPartitionedCall/model/bert/encoder/layer_1/output/LayerNorm/moments/variance", "op": "Mean", "input": ["StatefulPartitionedCall/model/bert/encoder/layer_1/output/LayerNorm/moments/SquaredDifference", "StatefulPartitionedCall/model/bert/encoder/layer_1/output/LayerNorm/moments/variance/reduction_indices"], "attr": {"keep_dims": {"b": true}, "Tidx": {"type": "DT_INT32"}, "T": {"type": "DT_FLOAT"}}}, {"name": "StatefulPartitionedCall/model/bert/encoder/layer_1/output/LayerNorm/add", "op": "AddV2", "input": ["StatefulPartitionedCall/model/bert/encoder/layer_1/output/LayerNorm/moments/variance", "StatefulPartitionedCall/model/bert/encoder/layer_1/output/LayerNorm/add/y"], "attr": {"T": {"type": "DT_FLOAT"}}}, {"name": "StatefulPartitionedCall/model/bert/encoder/layer_1/output/LayerNorm/Rsqrt", "op": "Rsqrt", "input": ["StatefulPartitionedCall/model/bert/encoder/layer_1/output/LayerNorm/add"], "attr": {"T": {"type": "DT_FLOAT"}}}, {"name": "StatefulPartitionedCall/model/bert/encoder/layer_1/output/LayerNorm/mul", "op": "Mul", "input": ["StatefulPartitionedCall/model/bert/encoder/layer_1/output/LayerNorm/ReadVariableOp", "StatefulPartitionedCall/model/bert/encoder/layer_1/output/LayerNorm/Rsqrt"], "attr": {"T": {"type": "DT_FLOAT"}}}, {"name": "StatefulPartitionedCall/model/bert/encoder/layer_1/output/LayerNorm/mul_2", "op": "Mul", "input": ["StatefulPartitionedCall/model/bert/encoder/layer_1/output/LayerNorm/moments/mean", "StatefulPartitionedCall/model/bert/encoder/layer_1/output/LayerNorm/mul"], "attr": {"T": {"type": "DT_FLOAT"}}}, {"name": "StatefulPartitionedCall/model/bert/encoder/layer_1/output/LayerNorm/mul_1", "op": "Mul", "input": ["StatefulPartitionedCall/model/bert/encoder/layer_1/output/Add", "StatefulPartitionedCall/model/bert/encoder/layer_1/output/LayerNorm/mul"], "attr": {"T": {"type": "DT_FLOAT"}}}, {"name": "StatefulPartitionedCall/model/bert/encoder/layer_1/output/LayerNorm/sub", "op": "Sub", "input": ["StatefulPartitionedCall/model/bert/encoder/layer_1/output/LayerNorm/ReadVariableOp_1", "StatefulPartitionedCall/model/bert/encoder/layer_1/output/LayerNorm/mul_2"], "attr": {"T": {"type": "DT_FLOAT"}}}, {"name": "StatefulPartitionedCall/model/bert/encoder/layer_1/output/LayerNorm/add_1", "op": "AddV2", "input": ["StatefulPartitionedCall/model/bert/encoder/layer_1/output/LayerNorm/mul_1", "StatefulPartitionedCall/model/bert/encoder/layer_1/output/LayerNorm/sub"], "attr": {"T": {"type": "DT_FLOAT"}}}, {"name": "StatefulPartitionedCall/model/lambda/strided_slice", "op": "StridedSlice", "input": ["StatefulPartitionedCall/model/bert/encoder/layer_1/output/LayerNorm/add_1", "StatefulPartitionedCall/model/lambda/strided_slice/stack", "StatefulPartitionedCall/model/lambda/strided_slice/stack_1", "StatefulPartitionedCall/model/lambda/strided_slice/stack_2"], "attr": {"T": {"type": "DT_FLOAT"}, "Index": {"type": "DT_INT32"}, "shrink_axis_mask": {"i": "2"}, "begin_mask": {"i": "5"}, "ellipsis_mask": {"i": "0"}, "new_axis_mask": {"i": "0"}, "end_mask": {"i": "5"}}}, {"name": "StatefulPartitionedCall/model/dense/BiasAdd", "op": "_FusedMatMul", "input": ["StatefulPartitionedCall/model/lambda/strided_slice", "StatefulPartitionedCall/model/dense/MatMul/ReadVariableOp", "StatefulPartitionedCall/model/dense/BiasAdd/ReadVariableOp"], "device": "/device:CPU:0", "attr": {"num_args": {"i": "1"}, "epsilon": {"f": 0.0}, "fused_ops": {"list": {"s": ["Qmlhc0FkZA=="]}}, "transpose_a": {"b": false}, "transpose_b": {"b": false}, "T": {"type": "DT_FLOAT"}}}, {"name": "StatefulPartitionedCall/model/dense/leaky_re_lu/LeakyRelu", "op": "LeakyRelu", "input": ["StatefulPartitionedCall/model/dense/BiasAdd"], "attr": {"T": {"type": "DT_FLOAT"}, "alpha": {"f": 0.3}}}, {"name": "StatefulPartitionedCall/model/dense_1/BiasAdd", "op": "_FusedMatMul", "input": ["StatefulPartitionedCall/model/dense/leaky_re_lu/LeakyRelu", "StatefulPartitionedCall/model/dense_1/MatMul/ReadVariableOp", "StatefulPartitionedCall/model/dense_1/BiasAdd/ReadVariableOp"], "device": "/device:CPU:0", "attr": {"fused_ops": {"list": {"s": ["Qmlhc0FkZA=="]}}, "transpose_a": {"b": false}, "transpose_b": {"b": false}, "T": {"type": "DT_FLOAT"}, "num_args": {"i": "1"}, "epsilon": {"f": 0.0}}}, {"name": "StatefulPartitionedCall/model/dense_1/Softmax", "op": "Softmax", "input": ["StatefulPartitionedCall/model/dense_1/BiasAdd"], "attr": {"T": {"type": "DT_FLOAT"}}}, {"name": "Identity", "op": "Identity", "input": ["StatefulPartitionedCall/model/dense_1/Softmax"], "attr": {"T": {"type": "DT_FLOAT"}}}], "library": {}, "versions": {"producer": 561}}, "weightsManifest": [{"paths": ["group1-shard1of5.bin", "group1-shard2of5.bin", "group1-shard3of5.bin", "group1-shard4of5.bin", "group1-shard5of5.bin"], "weights": [{"name": "StatefulPartitionedCall/model/bert/encoder/layer_1/output/LayerNorm/ReadVariableOp_1", "shape": [128], "dtype": "float32"}, {"name": "StatefulPartitionedCall/model/bert/encoder/layer_1/output/LayerNorm/ReadVariableOp", "shape": [128], "dtype": "float32"}, {"name": "StatefulPartitionedCall/model/bert/encoder/layer_1/output/dense/Tensordot/Const", "shape": [1], "dtype": "int32"}, {"name": "StatefulPartitionedCall/model/bert/encoder/layer_1/output/dense/Tensordot/axes", "shape": [1], "dtype": "int32"}, {"name": "StatefulPartitionedCall/model/bert/encoder/layer_1/output/dense/Tensordot/GatherV2_1/axis", "shape": [], "dtype": "int32"}, {"name": "StatefulPartitionedCall/model/bert/encoder/layer_1/output/dense/Tensordot/Const_1", "shape": [1], "dtype": "int32"}, {"name": "StatefulPartitionedCall/model/bert/encoder/layer_1/output/dense/Tensordot/ReadVariableOp", "shape": [512, 128], "dtype": "float32"}, {"name": "StatefulPartitionedCall/model/bert/encoder/layer_1/intermediate/mul_2/x", "shape": [], "dtype": "float32"}, {"name": "StatefulPartitionedCall/model/bert/encoder/layer_1/intermediate/add_1/x", "shape": [], "dtype": "float32"}, {"name": "StatefulPartitionedCall/model/bert/encoder/layer_1/intermediate/mul_1/x", "shape": [], "dtype": "float32"}, {"name": "StatefulPartitionedCall/model/bert/encoder/layer_1/intermediate/mul/x", "shape": [], "dtype": "float32"}, {"name": "StatefulPartitionedCall/model/bert/encoder/layer_1/intermediate/Tensordot/Const", "shape": [1], "dtype": "int32"}, {"name": "StatefulPartitionedCall/model/bert/encoder/layer_1/intermediate/Tensordot/axes", "shape": [1], "dtype": "int32"}, {"name": "StatefulPartitionedCall/model/bert/encoder/layer_1/intermediate/Tensordot/GatherV2_1/axis", "shape": [], "dtype": "int32"}, {"name": "StatefulPartitionedCall/model/bert/encoder/layer_1/intermediate/Tensordot/Const_1", "shape": [1], "dtype": "int32"}, {"name": "StatefulPartitionedCall/model/bert/encoder/layer_1/intermediate/Tensordot/ReadVariableOp", "shape": [128, 512], "dtype": "float32"}, {"name": "StatefulPartitionedCall/model/bert/encoder/layer_1/intermediate/Tensordot/free", "shape": [2], "dtype": "int32"}, {"name": "StatefulPartitionedCall/model/bert/encoder/layer_1/intermediate/Tensordot/GatherV2/axis", "shape": [], "dtype": "int32"}, {"name": "StatefulPartitionedCall/model/bert/encoder/layer_1/intermediate/Tensordot/Const_2", "shape": [1], "dtype": "int32"}, {"name": "StatefulPartitionedCall/model/bert/encoder/layer_1/intermediate/Tensordot/concat_1/axis", "shape": [], "dtype": "int32"}, {"name": "StatefulPartitionedCall/model/bert/encoder/layer_1/intermediate/BiasAdd/ReadVariableOp", "shape": [512], "dtype": "float32"}, {"name": "StatefulPartitionedCall/model/bert/encoder/layer_1/intermediate/Pow/y", "shape": [], "dtype": "float32"}, {"name": "StatefulPartitionedCall/model/bert/encoder/layer_1/output/dense/Tensordot/free", "shape": [2], "dtype": "int32"}, {"name": "StatefulPartitionedCall/model/bert/encoder/layer_1/output/dense/Tensordot/GatherV2/axis", "shape": [], "dtype": "int32"}, {"name": "StatefulPartitionedCall/model/bert/encoder/layer_1/output/dense/Tensordot/Const_2", "shape": [1], "dtype": "int32"}, {"name": "StatefulPartitionedCall/model/bert/encoder/layer_1/output/dense/Tensordot/concat_1/axis", "shape": [], "dtype": "int32"}, {"name": "StatefulPartitionedCall/model/bert/encoder/layer_1/output/dense/BiasAdd/ReadVariableOp", "shape": [128], "dtype": "float32"}, {"name": "StatefulPartitionedCall/model/bert/encoder/layer_1/attention/output/LayerNorm/ReadVariableOp_1", "shape": [128], "dtype": "float32"}, {"name": "StatefulPartitionedCall/model/bert/encoder/layer_1/attention/output/LayerNorm/ReadVariableOp", "shape": [128], "dtype": "float32"}, {"name": "StatefulPartitionedCall/model/bert/encoder/layer_1/attention/output/dense/Tensordot/Const", "shape": [1], "dtype": "int32"}, {"name": "StatefulPartitionedCall/model/bert/encoder/layer_1/attention/output/dense/Tensordot/axes", "shape": [1], "dtype": "int32"}, {"name": "StatefulPartitionedCall/model/bert/encoder/layer_1/attention/output/dense/Tensordot/GatherV2_1/axis", "shape": [], "dtype": "int32"}, {"name": "StatefulPartitionedCall/model/bert/encoder/layer_1/attention/output/dense/Tensordot/Const_1", "shape": [1], "dtype": "int32"}, {"name": "StatefulPartitionedCall/model/bert/encoder/layer_1/attention/output/dense/Tensordot/ReadVariableOp", "shape": [128, 128], "dtype": "float32"}, {"name": "StatefulPartitionedCall/model/bert/encoder/layer_1/attention/self/query/Tensordot/Const", "shape": [1], "dtype": "int32"}, {"name": "StatefulPartitionedCall/model/bert/encoder/layer_1/attention/self/query/Tensordot/axes", "shape": [1], "dtype": "int32"}, {"name": "StatefulPartitionedCall/model/bert/encoder/layer_1/attention/self/query/Tensordot/GatherV2_1/axis", "shape": [], "dtype": "int32"}, {"name": "StatefulPartitionedCall/model/bert/encoder/layer_1/attention/self/query/Tensordot/Const_1", "shape": [1], "dtype": "int32"}, {"name": "StatefulPartitionedCall/model/bert/encoder/layer_1/attention/self/query/Tensordot/ReadVariableOp", "shape": [128, 128], "dtype": "float32"}, {"name": "StatefulPartitionedCall/model/bert/encoder/layer_1/attention/self/query/Tensordot/free", "shape": [2], "dtype": "int32"}, {"name": "StatefulPartitionedCall/model/bert/encoder/layer_1/attention/self/query/Tensordot/GatherV2/axis", "shape": [], "dtype": "int32"}, {"name": "StatefulPartitionedCall/model/bert/encoder/layer_1/attention/self/query/Tensordot/Const_2", "shape": [1], "dtype": "int32"}, {"name": "StatefulPartitionedCall/model/bert/encoder/layer_1/attention/self/query/Tensordot/concat_1/axis", "shape": [], "dtype": "int32"}, {"name": "StatefulPartitionedCall/model/bert/encoder/layer_1/attention/self/query/BiasAdd/ReadVariableOp", "shape": [128], "dtype": "float32"}, {"name": "StatefulPartitionedCall/model/bert/encoder/layer_1/attention/self/Reshape/shape/2", "shape": [], "dtype": "int32"}, {"name": "StatefulPartitionedCall/model/bert/encoder/layer_1/attention/self/Reshape/shape/3", "shape": [], "dtype": "int32"}, {"name": "StatefulPartitionedCall/model/bert/encoder/layer_1/attention/self/transpose/perm", "shape": [4], "dtype": "int32"}, {"name": "StatefulPartitionedCall/model/bert/encoder/layer_1/attention/self/key/Tensordot/Const", "shape": [1], "dtype": "int32"}, {"name": "StatefulPartitionedCall/model/bert/encoder/layer_1/attention/self/key/Tensordot/axes", "shape": [1], "dtype": "int32"}, {"name": "StatefulPartitionedCall/model/bert/encoder/layer_1/attention/self/key/Tensordot/GatherV2_1/axis", "shape": [], "dtype": "int32"}, {"name": "StatefulPartitionedCall/model/bert/encoder/layer_1/attention/self/key/Tensordot/Const_1", "shape": [1], "dtype": "int32"}, {"name": "StatefulPartitionedCall/model/bert/encoder/layer_1/attention/self/key/Tensordot/ReadVariableOp", "shape": [128, 128], "dtype": "float32"}, {"name": "StatefulPartitionedCall/model/bert/encoder/layer_1/attention/self/key/Tensordot/free", "shape": [2], "dtype": "int32"}, {"name": "StatefulPartitionedCall/model/bert/encoder/layer_1/attention/self/key/Tensordot/GatherV2/axis", "shape": [], "dtype": "int32"}, {"name": "StatefulPartitionedCall/model/bert/encoder/layer_1/attention/self/key/Tensordot/Const_2", "shape": [1], "dtype": "int32"}, {"name": "StatefulPartitionedCall/model/bert/encoder/layer_1/attention/self/key/Tensordot/concat_1/axis", "shape": [], "dtype": "int32"}, {"name": "StatefulPartitionedCall/model/bert/encoder/layer_1/attention/self/key/BiasAdd/ReadVariableOp", "shape": [128], "dtype": "float32"}, {"name": "StatefulPartitionedCall/model/bert/encoder/layer_1/attention/self/Reshape_1/shape/2", "shape": [], "dtype": "int32"}, {"name": "StatefulPartitionedCall/model/bert/encoder/layer_1/attention/self/Reshape_1/shape/3", "shape": [], "dtype": "int32"}, {"name": "StatefulPartitionedCall/model/bert/encoder/layer_1/attention/self/transpose_1/perm", "shape": [4], "dtype": "int32"}, {"name": "ConstantFolding/StatefulPartitionedCall/model/bert/encoder/layer_1/attention/self/truediv_recip", "shape": [], "dtype": "float32"}, {"name": "StatefulPartitionedCall/model/bert/encoder/layer_1/attention/self/sub/x", "shape": [], "dtype": "float32"}, {"name": "StatefulPartitionedCall/model/bert/encoder/layer_1/attention/self/strided_slice_1/stack", "shape": [1], "dtype": "int32"}, {"name": "StatefulPartitionedCall/model/bert/encoder/layer_1/attention/self/strided_slice_1/stack_1", "shape": [1], "dtype": "int32"}, {"name": "StatefulPartitionedCall/model/bert/encoder/layer_1/attention/self/strided_slice_1/stack_2", "shape": [1], "dtype": "int32"}, {"name": "StatefulPartitionedCall/model/bert/encoder/layer_1/attention/self/ones_1/Const", "shape": [], "dtype": "float32"}, {"name": "StatefulPartitionedCall/model/bert/encoder/layer_1/attention/self/ExpandDims_1/dim", "shape": [], "dtype": "int32"}, {"name": "StatefulPartitionedCall/model/bert/encoder/layer_1/attention/self/strided_slice/stack", "shape": [1], "dtype": "int32"}, {"name": "StatefulPartitionedCall/model/bert/encoder/layer_1/attention/self/strided_slice/stack_1", "shape": [1], "dtype": "int32"}, {"name": "StatefulPartitionedCall/model/bert/encoder/layer_1/attention/self/strided_slice/stack_2", "shape": [1], "dtype": "int32"}, {"name": "StatefulPartitionedCall/model/bert/encoder/layer_1/attention/self/ones/packed/1", "shape": [], "dtype": "int32"}, {"name": "StatefulPartitionedCall/model/bert/encoder/layer_1/attention/self/ones/Const", "shape": [], "dtype": "int32"}, {"name": "StatefulPartitionedCall/model/bert/encoder/layer_1/attention/self/ExpandDims/dim", "shape": [], "dtype": "int32"}, {"name": "StatefulPartitionedCall/model/bert/encoder/layer_1/attention/self/ExpandDims_2/dim", "shape": [], "dtype": "int32"}, {"name": "StatefulPartitionedCall/model/bert/encoder/layer_1/attention/self/mul_1/y", "shape": [], "dtype": "float32"}, {"name": "StatefulPartitionedCall/model/bert/encoder/layer_1/attention/self/value/Tensordot/Const", "shape": [1], "dtype": "int32"}, {"name": "StatefulPartitionedCall/model/bert/encoder/layer_1/attention/self/value/Tensordot/axes", "shape": [1], "dtype": "int32"}, {"name": "StatefulPartitionedCall/model/bert/encoder/layer_1/attention/self/value/Tensordot/GatherV2_1/axis", "shape": [], "dtype": "int32"}, {"name": "StatefulPartitionedCall/model/bert/encoder/layer_1/attention/self/value/Tensordot/Const_1", "shape": [1], "dtype": "int32"}, {"name": "StatefulPartitionedCall/model/bert/encoder/layer_1/attention/self/value/Tensordot/ReadVariableOp", "shape": [128, 128], "dtype": "float32"}, {"name": "StatefulPartitionedCall/model/bert/encoder/layer_1/attention/self/value/Tensordot/free", "shape": [2], "dtype": "int32"}, {"name": "StatefulPartitionedCall/model/bert/encoder/layer_1/attention/self/value/Tensordot/GatherV2/axis", "shape": [], "dtype": "int32"}, {"name": "StatefulPartitionedCall/model/bert/encoder/layer_1/attention/self/value/Tensordot/Const_2", "shape": [1], "dtype": "int32"}, {"name": "StatefulPartitionedCall/model/bert/encoder/layer_1/attention/self/value/Tensordot/concat_1/axis", "shape": [], "dtype": "int32"}, {"name": "StatefulPartitionedCall/model/bert/encoder/layer_1/attention/self/value/BiasAdd/ReadVariableOp", "shape": [128], "dtype": "float32"}, {"name": "StatefulPartitionedCall/model/bert/encoder/layer_1/attention/self/Reshape_2/shape/2", "shape": [], "dtype": "int32"}, {"name": "StatefulPartitionedCall/model/bert/encoder/layer_1/attention/self/Reshape_2/shape/3", "shape": [], "dtype": "int32"}, {"name": "StatefulPartitionedCall/model/bert/encoder/layer_1/attention/self/transpose_2/perm", "shape": [4], "dtype": "int32"}, {"name": "StatefulPartitionedCall/model/bert/encoder/layer_1/attention/self/transpose_3/perm", "shape": [4], "dtype": "int32"}, {"name": "StatefulPartitionedCall/model/bert/encoder/layer_1/attention/self/strided_slice_2/stack", "shape": [1], "dtype": "int32"}, {"name": "StatefulPartitionedCall/model/bert/encoder/layer_1/attention/self/strided_slice_2/stack_1", "shape": [1], "dtype": "int32"}, {"name": "StatefulPartitionedCall/model/bert/encoder/layer_1/attention/self/strided_slice_2/stack_2", "shape": [1], "dtype": "int32"}, {"name": "StatefulPartitionedCall/model/bert/encoder/layer_1/attention/self/strided_slice_3/stack", "shape": [1], "dtype": "int32"}, {"name": "StatefulPartitionedCall/model/bert/encoder/layer_1/attention/self/strided_slice_3/stack_1", "shape": [1], "dtype": "int32"}, {"name": "StatefulPartitionedCall/model/bert/encoder/layer_1/attention/self/strided_slice_3/stack_2", "shape": [1], "dtype": "int32"}, {"name": "StatefulPartitionedCall/model/bert/encoder/layer_1/attention/self/Reshape_3/shape/2", "shape": [], "dtype": "int32"}, {"name": "StatefulPartitionedCall/model/bert/encoder/layer_1/attention/output/dense/Tensordot/free", "shape": [2], "dtype": "int32"}, {"name": "StatefulPartitionedCall/model/bert/encoder/layer_1/attention/output/dense/Tensordot/GatherV2/axis", "shape": [], "dtype": "int32"}, {"name": "StatefulPartitionedCall/model/bert/encoder/layer_1/attention/output/dense/Tensordot/Const_2", "shape": [1], "dtype": "int32"}, {"name": "StatefulPartitionedCall/model/bert/encoder/layer_1/attention/output/dense/Tensordot/concat_1/axis", "shape": [], "dtype": "int32"}, {"name": "StatefulPartitionedCall/model/bert/encoder/layer_1/attention/output/dense/BiasAdd/ReadVariableOp", "shape": [128], "dtype": "float32"}, {"name": "StatefulPartitionedCall/model/bert/encoder/layer_0/output/LayerNorm/ReadVariableOp_1", "shape": [128], "dtype": "float32"}, {"name": "StatefulPartitionedCall/model/bert/encoder/layer_0/output/LayerNorm/ReadVariableOp", "shape": [128], "dtype": "float32"}, {"name": "StatefulPartitionedCall/model/bert/encoder/layer_0/output/dense/Tensordot/Const", "shape": [1], "dtype": "int32"}, {"name": "StatefulPartitionedCall/model/bert/encoder/layer_0/output/dense/Tensordot/axes", "shape": [1], "dtype": "int32"}, {"name": "StatefulPartitionedCall/model/bert/encoder/layer_0/output/dense/Tensordot/GatherV2_1/axis", "shape": [], "dtype": "int32"}, {"name": "StatefulPartitionedCall/model/bert/encoder/layer_0/output/dense/Tensordot/Const_1", "shape": [1], "dtype": "int32"}, {"name": "StatefulPartitionedCall/model/bert/encoder/layer_0/output/dense/Tensordot/ReadVariableOp", "shape": [512, 128], "dtype": "float32"}, {"name": "StatefulPartitionedCall/model/bert/encoder/layer_0/intermediate/mul_2/x", "shape": [], "dtype": "float32"}, {"name": "StatefulPartitionedCall/model/bert/encoder/layer_0/intermediate/add_1/x", "shape": [], "dtype": "float32"}, {"name": "StatefulPartitionedCall/model/bert/encoder/layer_0/intermediate/mul_1/x", "shape": [], "dtype": "float32"}, {"name": "StatefulPartitionedCall/model/bert/encoder/layer_0/intermediate/mul/x", "shape": [], "dtype": "float32"}, {"name": "StatefulPartitionedCall/model/bert/encoder/layer_0/intermediate/Tensordot/Const", "shape": [1], "dtype": "int32"}, {"name": "StatefulPartitionedCall/model/bert/encoder/layer_0/intermediate/Tensordot/axes", "shape": [1], "dtype": "int32"}, {"name": "StatefulPartitionedCall/model/bert/encoder/layer_0/intermediate/Tensordot/GatherV2_1/axis", "shape": [], "dtype": "int32"}, {"name": "StatefulPartitionedCall/model/bert/encoder/layer_0/intermediate/Tensordot/Const_1", "shape": [1], "dtype": "int32"}, {"name": "StatefulPartitionedCall/model/bert/encoder/layer_0/intermediate/Tensordot/ReadVariableOp", "shape": [128, 512], "dtype": "float32"}, {"name": "StatefulPartitionedCall/model/bert/encoder/layer_0/intermediate/Tensordot/free", "shape": [2], "dtype": "int32"}, {"name": "StatefulPartitionedCall/model/bert/encoder/layer_0/intermediate/Tensordot/GatherV2/axis", "shape": [], "dtype": "int32"}, {"name": "StatefulPartitionedCall/model/bert/encoder/layer_0/intermediate/Tensordot/Const_2", "shape": [1], "dtype": "int32"}, {"name": "StatefulPartitionedCall/model/bert/encoder/layer_0/intermediate/Tensordot/concat_1/axis", "shape": [], "dtype": "int32"}, {"name": "StatefulPartitionedCall/model/bert/encoder/layer_0/intermediate/BiasAdd/ReadVariableOp", "shape": [512], "dtype": "float32"}, {"name": "StatefulPartitionedCall/model/bert/encoder/layer_0/intermediate/Pow/y", "shape": [], "dtype": "float32"}, {"name": "StatefulPartitionedCall/model/bert/encoder/layer_0/output/dense/Tensordot/free", "shape": [2], "dtype": "int32"}, {"name": "StatefulPartitionedCall/model/bert/encoder/layer_0/output/dense/Tensordot/GatherV2/axis", "shape": [], "dtype": "int32"}, {"name": "StatefulPartitionedCall/model/bert/encoder/layer_0/output/dense/Tensordot/Const_2", "shape": [1], "dtype": "int32"}, {"name": "StatefulPartitionedCall/model/bert/encoder/layer_0/output/dense/Tensordot/concat_1/axis", "shape": [], "dtype": "int32"}, {"name": "StatefulPartitionedCall/model/bert/encoder/layer_0/output/dense/BiasAdd/ReadVariableOp", "shape": [128], "dtype": "float32"}, {"name": "StatefulPartitionedCall/model/bert/encoder/layer_0/attention/output/LayerNorm/ReadVariableOp_1", "shape": [128], "dtype": "float32"}, {"name": "StatefulPartitionedCall/model/bert/encoder/layer_0/attention/output/LayerNorm/ReadVariableOp", "shape": [128], "dtype": "float32"}, {"name": "StatefulPartitionedCall/model/bert/encoder/layer_0/attention/output/dense/Tensordot/Const", "shape": [1], "dtype": "int32"}, {"name": "StatefulPartitionedCall/model/bert/encoder/layer_0/attention/output/dense/Tensordot/axes", "shape": [1], "dtype": "int32"}, {"name": "StatefulPartitionedCall/model/bert/encoder/layer_0/attention/output/dense/Tensordot/GatherV2_1/axis", "shape": [], "dtype": "int32"}, {"name": "StatefulPartitionedCall/model/bert/encoder/layer_0/attention/output/dense/Tensordot/Const_1", "shape": [1], "dtype": "int32"}, {"name": "StatefulPartitionedCall/model/bert/encoder/layer_0/attention/output/dense/Tensordot/ReadVariableOp", "shape": [128, 128], "dtype": "float32"}, {"name": "StatefulPartitionedCall/model/bert/encoder/layer_0/attention/self/query/Tensordot/Const", "shape": [1], "dtype": "int32"}, {"name": "StatefulPartitionedCall/model/bert/encoder/layer_0/attention/self/query/Tensordot/axes", "shape": [1], "dtype": "int32"}, {"name": "StatefulPartitionedCall/model/bert/encoder/layer_0/attention/self/query/Tensordot/GatherV2_1/axis", "shape": [], "dtype": "int32"}, {"name": "StatefulPartitionedCall/model/bert/encoder/layer_0/attention/self/query/Tensordot/Const_1", "shape": [1], "dtype": "int32"}, {"name": "StatefulPartitionedCall/model/bert/encoder/layer_0/attention/self/query/Tensordot/ReadVariableOp", "shape": [128, 128], "dtype": "float32"}, {"name": "StatefulPartitionedCall/model/bert/encoder/layer_0/attention/self/query/Tensordot/free", "shape": [2], "dtype": "int32"}, {"name": "StatefulPartitionedCall/model/bert/encoder/layer_0/attention/self/query/Tensordot/GatherV2/axis", "shape": [], "dtype": "int32"}, {"name": "StatefulPartitionedCall/model/bert/encoder/layer_0/attention/self/query/Tensordot/Const_2", "shape": [1], "dtype": "int32"}, {"name": "StatefulPartitionedCall/model/bert/encoder/layer_0/attention/self/query/Tensordot/concat_1/axis", "shape": [], "dtype": "int32"}, {"name": "StatefulPartitionedCall/model/bert/encoder/layer_0/attention/self/query/BiasAdd/ReadVariableOp", "shape": [128], "dtype": "float32"}, {"name": "StatefulPartitionedCall/model/bert/encoder/layer_0/attention/self/Reshape/shape/2", "shape": [], "dtype": "int32"}, {"name": "StatefulPartitionedCall/model/bert/encoder/layer_0/attention/self/Reshape/shape/3", "shape": [], "dtype": "int32"}, {"name": "StatefulPartitionedCall/model/bert/encoder/layer_0/attention/self/transpose/perm", "shape": [4], "dtype": "int32"}, {"name": "StatefulPartitionedCall/model/bert/encoder/layer_0/attention/self/key/Tensordot/Const", "shape": [1], "dtype": "int32"}, {"name": "StatefulPartitionedCall/model/bert/encoder/layer_0/attention/self/key/Tensordot/axes", "shape": [1], "dtype": "int32"}, {"name": "StatefulPartitionedCall/model/bert/encoder/layer_0/attention/self/key/Tensordot/GatherV2_1/axis", "shape": [], "dtype": "int32"}, {"name": "StatefulPartitionedCall/model/bert/encoder/layer_0/attention/self/key/Tensordot/Const_1", "shape": [1], "dtype": "int32"}, {"name": "StatefulPartitionedCall/model/bert/encoder/layer_0/attention/self/key/Tensordot/ReadVariableOp", "shape": [128, 128], "dtype": "float32"}, {"name": "StatefulPartitionedCall/model/bert/encoder/layer_0/attention/self/key/Tensordot/free", "shape": [2], "dtype": "int32"}, {"name": "StatefulPartitionedCall/model/bert/encoder/layer_0/attention/self/key/Tensordot/GatherV2/axis", "shape": [], "dtype": "int32"}, {"name": "StatefulPartitionedCall/model/bert/encoder/layer_0/attention/self/key/Tensordot/Const_2", "shape": [1], "dtype": "int32"}, {"name": "StatefulPartitionedCall/model/bert/encoder/layer_0/attention/self/key/Tensordot/concat_1/axis", "shape": [], "dtype": "int32"}, {"name": "StatefulPartitionedCall/model/bert/encoder/layer_0/attention/self/key/BiasAdd/ReadVariableOp", "shape": [128], "dtype": "float32"}, {"name": "StatefulPartitionedCall/model/bert/encoder/layer_0/attention/self/Reshape_1/shape/2", "shape": [], "dtype": "int32"}, {"name": "StatefulPartitionedCall/model/bert/encoder/layer_0/attention/self/Reshape_1/shape/3", "shape": [], "dtype": "int32"}, {"name": "StatefulPartitionedCall/model/bert/encoder/layer_0/attention/self/transpose_1/perm", "shape": [4], "dtype": "int32"}, {"name": "ConstantFolding/StatefulPartitionedCall/model/bert/encoder/layer_0/attention/self/truediv_recip", "shape": [], "dtype": "float32"}, {"name": "StatefulPartitionedCall/model/bert/encoder/layer_0/attention/self/sub/x", "shape": [], "dtype": "float32"}, {"name": "StatefulPartitionedCall/model/bert/encoder/layer_0/attention/self/strided_slice_1/stack", "shape": [1], "dtype": "int32"}, {"name": "StatefulPartitionedCall/model/bert/encoder/layer_0/attention/self/strided_slice_1/stack_1", "shape": [1], "dtype": "int32"}, {"name": "StatefulPartitionedCall/model/bert/encoder/layer_0/attention/self/strided_slice_1/stack_2", "shape": [1], "dtype": "int32"}, {"name": "StatefulPartitionedCall/model/bert/encoder/layer_0/attention/self/ones_1/Const", "shape": [], "dtype": "float32"}, {"name": "StatefulPartitionedCall/model/bert/encoder/layer_0/attention/self/ExpandDims_1/dim", "shape": [], "dtype": "int32"}, {"name": "StatefulPartitionedCall/model/bert/encoder/layer_0/attention/self/strided_slice/stack", "shape": [1], "dtype": "int32"}, {"name": "StatefulPartitionedCall/model/bert/encoder/layer_0/attention/self/strided_slice/stack_1", "shape": [1], "dtype": "int32"}, {"name": "StatefulPartitionedCall/model/bert/encoder/layer_0/attention/self/strided_slice/stack_2", "shape": [1], "dtype": "int32"}, {"name": "StatefulPartitionedCall/model/bert/encoder/layer_0/attention/self/ones/packed/1", "shape": [], "dtype": "int32"}, {"name": "StatefulPartitionedCall/model/bert/encoder/layer_0/attention/self/ones/Const", "shape": [], "dtype": "int32"}, {"name": "StatefulPartitionedCall/model/bert/encoder/layer_0/attention/self/ExpandDims/dim", "shape": [], "dtype": "int32"}, {"name": "StatefulPartitionedCall/model/bert/encoder/layer_0/attention/self/ExpandDims_2/dim", "shape": [], "dtype": "int32"}, {"name": "StatefulPartitionedCall/model/bert/encoder/layer_0/attention/self/mul_1/y", "shape": [], "dtype": "float32"}, {"name": "StatefulPartitionedCall/model/bert/encoder/layer_0/attention/self/value/Tensordot/Const", "shape": [1], "dtype": "int32"}, {"name": "StatefulPartitionedCall/model/bert/encoder/layer_0/attention/self/value/Tensordot/axes", "shape": [1], "dtype": "int32"}, {"name": "StatefulPartitionedCall/model/bert/encoder/layer_0/attention/self/value/Tensordot/GatherV2_1/axis", "shape": [], "dtype": "int32"}, {"name": "StatefulPartitionedCall/model/bert/encoder/layer_0/attention/self/value/Tensordot/Const_1", "shape": [1], "dtype": "int32"}, {"name": "StatefulPartitionedCall/model/bert/encoder/layer_0/attention/self/value/Tensordot/ReadVariableOp", "shape": [128, 128], "dtype": "float32"}, {"name": "StatefulPartitionedCall/model/bert/encoder/layer_0/attention/self/value/Tensordot/free", "shape": [2], "dtype": "int32"}, {"name": "StatefulPartitionedCall/model/bert/encoder/layer_0/attention/self/value/Tensordot/GatherV2/axis", "shape": [], "dtype": "int32"}, {"name": "StatefulPartitionedCall/model/bert/encoder/layer_0/attention/self/value/Tensordot/Const_2", "shape": [1], "dtype": "int32"}, {"name": "StatefulPartitionedCall/model/bert/encoder/layer_0/attention/self/value/Tensordot/concat_1/axis", "shape": [], "dtype": "int32"}, {"name": "StatefulPartitionedCall/model/bert/encoder/layer_0/attention/self/value/BiasAdd/ReadVariableOp", "shape": [128], "dtype": "float32"}, {"name": "StatefulPartitionedCall/model/bert/encoder/layer_0/attention/self/Reshape_2/shape/2", "shape": [], "dtype": "int32"}, {"name": "StatefulPartitionedCall/model/bert/encoder/layer_0/attention/self/Reshape_2/shape/3", "shape": [], "dtype": "int32"}, {"name": "StatefulPartitionedCall/model/bert/encoder/layer_0/attention/self/transpose_2/perm", "shape": [4], "dtype": "int32"}, {"name": "StatefulPartitionedCall/model/bert/encoder/layer_0/attention/self/transpose_3/perm", "shape": [4], "dtype": "int32"}, {"name": "StatefulPartitionedCall/model/bert/encoder/layer_0/attention/self/strided_slice_2/stack", "shape": [1], "dtype": "int32"}, {"name": "StatefulPartitionedCall/model/bert/encoder/layer_0/attention/self/strided_slice_2/stack_1", "shape": [1], "dtype": "int32"}, {"name": "StatefulPartitionedCall/model/bert/encoder/layer_0/attention/self/strided_slice_2/stack_2", "shape": [1], "dtype": "int32"}, {"name": "StatefulPartitionedCall/model/bert/encoder/layer_0/attention/self/strided_slice_3/stack", "shape": [1], "dtype": "int32"}, {"name": "StatefulPartitionedCall/model/bert/encoder/layer_0/attention/self/strided_slice_3/stack_1", "shape": [1], "dtype": "int32"}, {"name": "StatefulPartitionedCall/model/bert/encoder/layer_0/attention/self/strided_slice_3/stack_2", "shape": [1], "dtype": "int32"}, {"name": "StatefulPartitionedCall/model/bert/encoder/layer_0/attention/self/Reshape_3/shape/2", "shape": [], "dtype": "int32"}, {"name": "StatefulPartitionedCall/model/bert/encoder/layer_0/attention/output/dense/Tensordot/free", "shape": [2], "dtype": "int32"}, {"name": "StatefulPartitionedCall/model/bert/encoder/layer_0/attention/output/dense/Tensordot/GatherV2/axis", "shape": [], "dtype": "int32"}, {"name": "StatefulPartitionedCall/model/bert/encoder/layer_0/attention/output/dense/Tensordot/Const_2", "shape": [1], "dtype": "int32"}, {"name": "StatefulPartitionedCall/model/bert/encoder/layer_0/attention/output/dense/Tensordot/concat_1/axis", "shape": [], "dtype": "int32"}, {"name": "StatefulPartitionedCall/model/bert/encoder/layer_0/attention/output/dense/BiasAdd/ReadVariableOp", "shape": [128], "dtype": "float32"}, {"name": "StatefulPartitionedCall/model/bert/embeddings/LayerNorm/ReadVariableOp_1", "shape": [128], "dtype": "float32"}, {"name": "StatefulPartitionedCall/model/bert/embeddings/LayerNorm/ReadVariableOp", "shape": [128], "dtype": "float32"}, {"name": "unknown", "shape": [30522, 128], "dtype": "float32"}, {"name": "StatefulPartitionedCall/model/bert/embeddings/word_embeddings/embedding_lookup/axis", "shape": [], "dtype": "int32"}, {"name": "StatefulPartitionedCall/model/bert/embeddings/Reshape", "shape": [1, 38, 128], "dtype": "float32"}, {"name": "StatefulPartitionedCall/model/bert/embeddings/LayerNorm/moments/mean/reduction_indices", "shape": [], "dtype": "int32"}, {"name": "StatefulPartitionedCall/model/bert/embeddings/LayerNorm/moments/variance/reduction_indices", "shape": [], "dtype": "int32"}, {"name": "StatefulPartitionedCall/model/bert/embeddings/LayerNorm/add/y", "shape": [], "dtype": "float32"}, {"name": "StatefulPartitionedCall/model/bert/encoder/layer_0/attention/output/LayerNorm/moments/mean/reduction_indices", "shape": [], "dtype": "int32"}, {"name": "StatefulPartitionedCall/model/bert/encoder/layer_0/attention/output/LayerNorm/moments/variance/reduction_indices", "shape": [], "dtype": "int32"}, {"name": "StatefulPartitionedCall/model/bert/encoder/layer_0/attention/output/LayerNorm/add/y", "shape": [], "dtype": "float32"}, {"name": "StatefulPartitionedCall/model/bert/encoder/layer_0/output/LayerNorm/moments/mean/reduction_indices", "shape": [], "dtype": "int32"}, {"name": "StatefulPartitionedCall/model/bert/encoder/layer_0/output/LayerNorm/moments/variance/reduction_indices", "shape": [], "dtype": "int32"}, {"name": "StatefulPartitionedCall/model/bert/encoder/layer_0/output/LayerNorm/add/y", "shape": [], "dtype": "float32"}, {"name": "StatefulPartitionedCall/model/bert/encoder/layer_1/attention/output/LayerNorm/moments/mean/reduction_indices", "shape": [], "dtype": "int32"}, {"name": "StatefulPartitionedCall/model/bert/encoder/layer_1/attention/output/LayerNorm/moments/variance/reduction_indices", "shape": [], "dtype": "int32"}, {"name": "StatefulPartitionedCall/model/bert/encoder/layer_1/attention/output/LayerNorm/add/y", "shape": [], "dtype": "float32"}, {"name": "StatefulPartitionedCall/model/bert/encoder/layer_1/output/LayerNorm/moments/mean/reduction_indices", "shape": [], "dtype": "int32"}, {"name": "StatefulPartitionedCall/model/bert/encoder/layer_1/output/LayerNorm/moments/variance/reduction_indices", "shape": [], "dtype": "int32"}, {"name": "StatefulPartitionedCall/model/bert/encoder/layer_1/output/LayerNorm/add/y", "shape": [], "dtype": "float32"}, {"name": "StatefulPartitionedCall/model/lambda/strided_slice/stack", "shape": [3], "dtype": "int32"}, {"name": "StatefulPartitionedCall/model/lambda/strided_slice/stack_1", "shape": [3], "dtype": "int32"}, {"name": "StatefulPartitionedCall/model/lambda/strided_slice/stack_2", "shape": [3], "dtype": "int32"}, {"name": "StatefulPartitionedCall/model/dense/MatMul/ReadVariableOp", "shape": [128, 192], "dtype": "float32"}, {"name": "StatefulPartitionedCall/model/dense/BiasAdd/ReadVariableOp", "shape": [192], "dtype": "float32"}, {"name": "StatefulPartitionedCall/model/dense_1/MatMul/ReadVariableOp", "shape": [192, 7], "dtype": "float32"}, {"name": "StatefulPartitionedCall/model/dense_1/BiasAdd/ReadVariableOp", "shape": [7], "dtype": "float32"}]}]}